vqvae_mnist.pth (torch, 350408 bytes, 12 tensors)

encoder.conv.0.weight f4 [32, 1, 4, 4]
00000000: 4c60 483e 8897 fdbc b0f0 16bd 693e 203e
00000010: 9469 91bc 2f3c 223e ff43 31be 4053 3b3e
00000020: f8e9 cc3d 27e6 ddbb 189a c4bd b1ec 92bc
00000030: 95fe cfbc adcd 8b3e 0a6c 333e 4f69 963e
00000040: 8299 73bd 1f34 613e 88a4 7d3e 7943 11be
00000050: 4b5a 51be d69a 85bd b980 f03c b1dc e7bc
00000060: 6c82 303e b08e 77bd 92c3 843e 06ab ed3d
00000070: 59c3 56be 9a7a a63c 4e4e 263e be6c 083e
00000080: 6836 483d beed f1bd 6fb2 20be 1225 9abd
00000090: 2852 a03d 8c0d ae3d 97c3 08be 037e 05bd
000000a0: 0411 5b3e 14f5 aa3e 3375 773e f4f1 5f3e
000000b0: 6929 1fbe 2171 43be 742c 333e a042 bc3b
000000c0: 2756 05be 7e27 83bd e4f5 413e e857 0c3d
000000d0: 31cb 963e 950b 3e3e 3005 53bd 6f86 c9bd
000000e0: a82e 513d 923e 903d f86e 81be 772f 12be
000000f0: 8c23 5bbe bd39 883c 24b6 e83d d587 dabc
00000100: 609d 9dbd 1f68 52bd c854 1fbe 5db1 b0bc
00000110: 4ba8 e43d 73b3 763d 96ae 33be c8ef a73e
00000120: 8f7e 01bc b9fb a2bd 9c94 0a3e 08b9 133e
00000130: 2a5a 67bd e702 933e f0d7 af3d 0e29 91bd
00000140: 2d9e 723e 0f37 613d 814a 3f3e 12b1 513e
00000150: 5332 2a3d c737 d4bd 83d3 983e 9114 613d
00000160: 0702 babd 8633 8b3e 712f 23bd d4d4 4c3e
00000170: 5928 9b3d 61b5 03bd 7512 46bc 919d 823e
00000180: 8ad8 28be 0435 a5bd 14c3 cd3d d9e6 be3d
00000190: 7240 73be d7f8 283e beb4 bfbd e5e3 53be
000001a0: ff82 a33c 64e5 00be 3cf8 57be f20c 45bd
000001b0: ec2a 69be a812 fa3d 3dd8 5fbe 7ae6 febd
000001c0: 3a5f c8bd 4d9f 22be 7db5 b4bd 30a7 923e
000001d0: 4659 8dbb df7a 7cbd e88f a2be 1e38 353e
000001e0: 58e0 45be fdb4 a6bc 0f8a 92bd 3b47 143d
000001f0: 135b 3dbe 565f 07be c520 af3d eb16 f2bd
00000200: d475 f13c 1206 2ebe 6cd3 3abd 796d f5bd
00000210: 031e a13e 8116 c43e c477 913e 928e 4e3e
00000220: 879e 75be 54a9 96be 4407 6c3e fa92 e7bd
00000230: d666 783b 5ed7 a33d fd57 2bbe 48a1 1f3e
00000240: a840 00bb 07c7 9d3d 6153 893b b693 2bbe
00000250: 01fa 7b3b 5228 df3d ffb1 2b3e 535e 11bc
00000260: 8c79 52be 5874 f63d c949 1fbe 5059 6dbd
00000270: 11ec d1bc 77eb a03d 795b fa3d 208a 813e
00000280: b239 c2bc df61 71be 3774 d0bd 2db5 123e
00000290: e4cf bb3d 33a5 dfbd cf6c 9abe 7bcd 9ebd
000002a0: 8b8d 87be c0f5 ecbd a068 603d e94a 343e
000002b0: 00e5 13bd b7a7 153e 57d2 25bd 287c 04be
000002c0: 5757 b73d 0f69 8fba d8d5 403e 7a9e 80be
000002d0: b3ff 703e 8b12 68be 962f bc3d bcec bbbc
000002e0: df21 9dbd c13e 3e3e 207d 2abe 4309 dabc
000002f0: 50f2 1a3e 4962 943c f4b0 68be bf64 cb3d
00000300: a95f 5cbe 1d34 2cbd 1212 86be d664 3e3e
00000310: 0687 53bd 1285 cbbd 1e88 c83c 338b 27be
00000320: 5132 823d 9d08 093e 451e 0b3e 6e25 0e3e
00000330: bfca abb9 8bd6 2f3e 669a 4d3d f626 0e3e
00000340: 7066 933e 1a55 353e 5a6d 06be 26a7 02be
00000350: e40e 7b3e 6f95 ecbd e6a0 1e3e 2f60 e03d
00000360: 1b3a 1ab9 05d6 153e 51f3 efbd 53f1 0abe
00000370: 0afe cf3d 0381 353e 5dce 0c3d 8213 8c3d
00000380: e54d 8e3d 342b 53be 80fe cbbd 43d8 9fbe
00000390: a3e6 1e3e b079 a3be 4baf f2bd c699 8dbe
000003a0: 8971 d83d d542 b2be 9fa0 08be 0731 65bd
000003b0: 3f39 843e 4a94 5fbd 3706 29bd 9880 aabd
000003c0: 0c6c 9fbd 6692 8cbd 8005 a03d 7223 353e
000003d0: 1284 073e 3ddb 29bd c481 463e 1266 ec3b
000003e0: b0fd 14be c390 0f3d 3450 283e 10c0 08be
000003f0: 0c31 643e 8faf 653e 28d7 d0bd 422f 3b3e
0.19567984 -0.030956045 -0.03685063 0.15648808 -0.017750539 0.1584327 -0.17311095 0.18293476
0.100055635 -0.006771821 -0.095997036 -0.017935129 -0.025389949 0.27305356 0.17521682 0.2937722
-0.05947257 0.21992539 0.24769795 -0.14185895 -0.204446 -0.06523673 0.029358255 -0.028303476
0.17237252 -0.06043881 0.25930458 0.11604886 -0.20972957 0.020322133 0.16240808 0.13322732
0.04888001 -0.11812924 -0.15693067 -0.07526602 0.0782817 0.084986776 -0.13355862 -0.032590877
0.2139321 0.33390105 0.24165802 0.21869642 -0.1554314 -0.19086124 0.17497426 0.005745247
-0.13021146 -0.06404017 0.18941456 0.03426352 0.29451898 0.18559106 -0.05151862 -0.09840094
0.051069885 0.07043184 -0.25279975 -0.14275919 -0.21400279 0.016629094 0.113628656 -0.026676098
-0.076960325 -0.05136883 -0.15559685 -0.021568948 0.11164912 0.06022973 -0.17547068 0.32800126
-0.007903709 -0.079581685 0.13533252 0.14426053 -0.05648247 0.28713152 0.08586109 -0.07087909
0.23693152 0.05498415 0.18680765 0.20477703 0.0415519 -0.10362201 0.2984887 0.054951254
-0.09082418 0.27187747 -0.039840166 0.20003062 0.07576055 -0.0321554 -0.012089361 0.2551084
-0.16488853 -0.080667526 0.10046974 0.093213744 -0.23755053 0.16501175 -0.09360646 -0.20692404
0.019959925 -0.12587506 -0.21090788 -0.04810805 -0.2277028 0.1221059 -0.21859832 -0.12446304
-0.09783788 -0.15881081 -0.08823679 0.2864318 -0.0043136207 -0.061640617 -0.31750417 0.17697188
-0.19323862 -0.020349974 -0.07155239 0.036200743 -0.18491773 -0.13219962 0.08551172 -0.118207775
0.02947513 -0.16994503 -0.045611784 -0.11983771 0.3146821 0.3829842 0.28411686 0.20171574
-0.23986255 -0.29426062 0.23049647 -0.113073304 0.0037903092 0.080000624 -0.16732784 0.15588868
-0.0019569788 0.07703977 0.0041908477 -0.16755566 0.0038448574 0.10896362 0.16767119 -0.008872586
-0.20554179 0.120339096 -0.1555549 -0.057946503 -0.02562526 0.07857411 0.12224478 0.25300694
-0.023709152 -0.23572491 -0.10178416 0.14326926 0.09170511 -0.10920181 -0.3016114 -0.07754036
-0.26475176 -0.115703106 0.05478728 0.17606701 -0.036107063 0.1461476 -0.0404838 -0.12937987
0.08952206 -0.0010941344 0.18831575 -0.25120908 0.23535042 -0.22663324 0.09188764 -0.022940032
-0.07672476 0.18578626 -0.16649294 -0.026615744 0.15131497 0.018113272 -0.22723752 0.09931325
-0.21520866 -0.042041887 -0.26185662 0.18593153 -0.05164244 -0.099374905 0.024478968 -0.16361694
0.06357253 0.13382192 0.13585766 0.13881466 -0.0003276672 0.17171685 0.050196074 0.1388205
0.2878909 0.17708245 -0.13127652 -0.12759075 0.24517399 -0.1155194 0.15491065 0.109558456
-0.0001470823 0.14632423 -0.11716331 -0.1356862 0.10155876 0.17724995 0.03437649 0.06839658
0.06948451 -0.2062195 -0.099606514 -0.31219682 0.15517668 -0.31928778 -0.11849841 -0.27656382
0.1056853 -0.34816614 -0.13342522 -0.05595496 0.25824925 -0.05458478 -0.041265693 -0.083253086
-0.0778428 -0.06863861 0.07813549 0.17689303 0.13233975 -0.041468848 0.19385439 0.007214316
-0.14549899 0.035050165 0.16436845 -0.13354516 0.22284335 0.22430252 -0.10197288 0.18279746

encoder.conv.0.bias f4 [32]
00000000: 01f9 a9bd 40f9 f0b7 f550 883a 2e76 ac3b
00000010: 5233 f9ba 1b04 a0bd f969 9a3d f6b1 be3c
00000020: a452 37b9 45b5 c338 ee95 513e b7d7 d03d
00000030: cb92 723e 211f 2dbe ca47 c93d cacc 5e3e
00000040: e9bf 3a3e 9d2f 5cba 0071 19bb 722f e73d
00000050: 0dbf b83b 76ae 90bd 8a33 163e 3c46 553d
00000060: 9773 5b3e 6389 62b9 6d00 833c ccf8 25be
00000070: 1986 3fbd dd61 273e 4635 d03b 3b74 383e
-0.08299447 -2.8726296e-05 0.0010400104 0.0052631116 -0.0019012487 -0.07813283 0.07539744 0.023278218
-0.00017483026 9.332089e-05 0.2046735 0.10197394 0.2368881 -0.16906406 0.09828146 0.21757808
0.1823727 -0.0008399429 -0.00234133 0.11288346 0.0056380094 -0.07064526 0.14668098 0.052068934
0.21430813 -0.0002160422 0.015991414 -0.1620819 -0.046758745 0.16345926 0.006354007 0.18013088

encoder.conv.2.weight f4 [64, 32, 4, 4]
00000000: d5ed 273c ed12 553a b0fa 1e3d cde6 8e3c
00000010: 2d66 453d 61c7 61bb 9ee9 c4bb 506a 953d
00000020: f2cb 74bb 68a6 163c 8558 9d3c 21d5 ea3c
00000030: 42db 87bb 1455 6c3b 51a3 5fbc d180 95bb
00000040: 869f c63c 07fe 613d 8602 af3a 5776 4b3c
00000050: 5285 37bd bb30 08bd cad2 533d 77e1 883d
00000060: f9f4 20bd ba9d 66bd 2a32 4a3c ff07 503d
00000070: a73c bb3c f132 8bbc c537 9ebb 4325 063d
00000080: 2bcc 7d3a bdad 7b3d 3776 d43c 8b2d 42bc
00000090: 50fc 32bc 9562 6fbd 48cd b43d e391 243d
000000a0: bac4 06bb 60a1 45bd d4b0 d63c f203 b73c
000000b0: 10cf 07bd 0c33 56bd ee23 1bbd e8cb 8e3d
000000c0: 3f1c 0d3d 51c8 0ebe b962 09bd 7da0 cbbc
000000d0: dfd4 fb3c 416c 67be 7ab7 9bbc 329d 5ebd
000000e0: f02c 3c3e e8a7 36bd de39 42bd 6717 5b3d
000000f0: 8a41 0d3d 2bf2 1cbc 19ab 3abc ab7f 3bbd
00000100: bae1 15bd c34e aebb 79e3 823c f560 673d
00000110: 5f97 4fbc 2553 c1bc 51bb 34bd 0677 a43d
00000120: 84fd 1abc a7de 883b 3708 623d dc43 a23c
00000130: 08b8 2bbc c5fe e33b b3a1 9abb e726 0bbd
00000140: c5c0 89bc e11d 813c 259b 49bb 5d1f 1c3d
00000150: e836 adbb abcc 9e3c 1f3f f3bb 3a85 423d
00000160: 6b81 a33b ce0c f43c c63c 4f3c 86fc 933d
00000170: 1099 e33b bde4 303d eeb2 9a3c edc5 c73d
00000180: 205c 513d 3736 e83c 7ca3 373c 6938 0c3d
00000190: 10c4 0abd b34a 7f3d 867d fbbc e595 59bc
000001a0: 8d58 633c 5c00 013d cae8 473c eddf b3bc
000001b0: 4a37 23bd f2f5 bebc 9d6f a9bc c469 e9bc
000001c0: a76f 3d3d f98c 25bc f7f6 da3c 2ecd d43c
000001d0: dfcc 003d 12f7 c33c 1d8c 4e3c 9e24 513d
000001e0: b936 893c 4db7 363d b946 3e3d e116 843d
000001f0: fcad 8f3d e0a9 6fbd 8130 1d3d 91e3 5f3c
00000200: d04b eebc 6e61 a9bd 8d23 6a3b 1eb5 023d
00000210: 8e1a b8bb 26ab 84bc a14f c83b a6ea 94bc
00000220: 2cad f4bc 9fbc 64bc 31bb c53d 31dd 113e
00000230: fb72 00bd 18f9 2cbc 45a6 d23c 592b 7d3c
00000240: e706 b8bc 375f c03c 831a 253d 6c32 7a3d
00000250: 28a9 9ebd b14e 6dbc 332f 583d 9a63 8dbc
00000260: e290 363d cc27 073d 3120 333d 8c93 b53d
00000270: 2d51 9dbb 1901 23bd 54df febc 06c2 f83c
00000280: 20d9 50bc 8530 6a3d 9777 633d b5d9 b939
00000290: 26e0 8dbc 5b63 bdbc d579 5dbc 7c02 0f3c
000002a0: 31dc 8fbc 7885 f23c 2ddb 073d 930d 32bd
000002b0: 2378 3e3d 312b 533b f3cd ed3b 6fca 07bd
000002c0: 8f60 8c3c a4e5 d8bb c47a 31bd 985d f7bc
000002d0: 240d 8f3c 847f 063c 0252 8e3c 0cd8 e53b
000002e0: 3712 15bd 713e 14bc a96d ebbc 58a4 e63a
000002f0: 98f5 3fbd 4fe5 0dbd dfe4 8cbb c941 b2bb
00000300: 086e 72bc 52d3 113d a1b0 823d 4486 573b
00000310: c02d afbc 8889 abbc 1bec 463c 3dd1 203d
00000320: 2206 27bd bcdb a1bc 31d0 283d ab2f 1b3d
00000330: 5727 aa3c d1e1 0d3c 065e 533d 4a5d c1bc
00000340: 012a 09bc 7261 4abd fa66 a2bc cd9d 9c3c
00000350: 5471 0fbd e0a6 79bc 9895 c0bc 210a 773d
00000360: 3dff 53bd fa35 20bc 083d 093d cad3 293d
00000370: d7ff 1a3b 9573 17bd 514d 95bc 7976 563c
00000380: 4bc7 0c3d 15a2 f5bb 0187 4abc b5df d5bc
00000390: 2558 c4bc dad6 143d a95d a53c 48d1 bebc
000003a0: b73a febb b459 f93b cdad ccbc 2369 2fbd
000003b0: 51bb a93c 0deb 8d3d 94c3 843c 6445 023c
000003c0: 2783 01bd ee9e a03c 71c8 cebc 1791 193c
000003d0: d19f d23c fe8c d23c 8dae c53c 53fa 2e3d
000003e0: 7995 383c 2be4 efbc 8acd 54bc 3723 e93c
000003f0: 67ba 523b 09f5 033b 077d 173d 2c6f 833d
0.010249575 0.00081281253 0.038813293 0.017444039 0.048193146 -0.0034451114 -0.0060092947 0.07295668
-0.0037353006 0.009194948 0.019207248 0.02866608 -0.0041460106 0.0036061453 -0.0136497775 -0.0045624753
0.024245989 0.0551739 0.0013352192 0.012418351 -0.04480488 -0.033249598 0.051714696 0.06683629
-0.039296124 -0.056302764 0.012341062 0.050788876 0.02285607 -0.016992064 -0.0048284256 0.03275038
0.00096816075 0.061444987 0.025935275 -0.011851679 -0.010924414 -0.058443625 0.08828217 0.04017819
-0.0020564036 -0.048249602 0.026207365 0.022340748 -0.033156455 -0.052294776 -0.037876062 0.06972486
0.034450766 -0.13943602 -0.033541415 -0.0248568 0.030741153 -0.2259989 -0.019008387 -0.054349132
0.18376517 -0.04459372 -0.047418468 0.053489115 0.03448633 -0.009579222 -0.011393332 -0.04577605
-0.036592223 -0.0053194477 0.015977608 0.05648895 -0.012670367 -0.023599217 -0.04412395 0.080305144
-0.009459857 0.004176933 0.055183616 0.019807748 -0.010480888 0.006957861 -0.004718983 -0.033972647
-0.016815552 0.015761318 -0.003076264 0.038115848 -0.0052860864 0.019384703 -0.007423296 0.047490336
0.004989793 0.029791262 0.012648767 0.072258994 0.0069457367 0.04318689 0.018884148 0.09754548
0.051113248 0.028346164 0.011208411 0.034233484 -0.033878386 0.062327098 -0.030699503 -0.013280367
0.013876093 0.031494483 0.012201497 -0.021957362 -0.03984765 -0.023310635 -0.020683104 -0.028492816
0.046249058 -0.010104411 0.02672909 0.025976744 0.03144538 0.023921523 0.012606648 0.05106031
0.016749727 0.044608403 0.046454165 0.06449676 0.07015607 -0.058511615 0.038376335 0.013665096
-0.029088885 -0.08270536 0.0035726756 0.031911008 -0.0056184 -0.016194891 0.006113008 -0.018178295
-0.029867731 -0.013960986 0.096548446 0.14244534 -0.031359654 -0.010557435 0.02571405 0.015452229
-0.022464229 0.023482902 0.040308487 0.061083242 -0.07747108 -0.0144840935 0.052779388 -0.017259408
0.044571765 0.032996938 0.043731872 0.08866033 -0.0048009367 -0.03979597 -0.03111235 0.030365955
-0.012747079 0.057175178 0.05553397 0.00035448154 -0.017318796 -0.023118665 -0.013517817 0.00872862
-0.01756105 0.029604658 0.033168007 -0.043469977 0.04650129 0.003222179 0.007257217 -0.03315204
0.017135886 -0.006619172 -0.04332997 -0.030195996 0.01746232 0.008209113 0.017373089 0.00701428
-0.036394324 -0.00904809 -0.028738813 0.0017596586 -0.046865076 -0.034642514 -0.0042997445 -0.005439971
-0.014796741 0.03560192 0.063813455 0.0032886425 -0.02138412 -0.020939603 0.012141253 0.039262045
-0.040777333 -0.019758098 0.04121417 0.037887257 0.020770712 0.008659796 0.05160334 -0.023604054
-0.008371831 -0.049409337 -0.019824494 0.019118214 -0.035020187 -0.01523754 -0.023508832 0.060312394
-0.051757086 -0.009778494 0.03350547 0.041461743 0.0023651028 -0.036975462 -0.018225344 0.0130897695
0.034369748 -0.0074961283 -0.012361289 -0.026107648 -0.023967812 0.03633771 0.020186262 -0.023293152
-0.007758464 0.0076095704 -0.024985218 -0.042824876 0.020719202 0.06929598 0.01620654 0.007951114
-0.031619217 0.019607034 -0.025242062 0.009372971 0.025710972 0.025701996 0.024131084 0.042719197
0.011266106 -0.029283604 -0.012988457 0.028459175 0.0032154561 0.0020135066 0.03698447 0.06417689

encoder.conv.2.bias f4 [64]
00000000: 67fc c9bc 3016 8a3d 9726 6d3c 8d03 42bc
00000010: 295c 7cbb 0a8c 7d3c 0fb5 7abc 0037 163d
00000020: da9d 1a3d 2f3d 453d 1a9c 843d c672 ab3c
00000030: 9faa 24bd e3b6 bd3b 6fbe ed3a 1537 203c
00000040: 732b 99bc 403b 0ebc 6cc3 433d 3dd0 473d
00000050: 4b77 afbb 1bd1 063d 947a 89bd ce13 cc3c
00000060: 149d 2c3d 0486 feba c6e2 4a3c f399 1cbd
00000070: 65c2 9bbc 4aec ff3c be49 fabc 3e29 ebbc
00000080: 65e1 4a3d 35f7 b7bc f085 a2bc cbd6 49bd
00000090: 2af0 04bd 45c7 273c fb01 3abd 069a 4a3d
000000a0: 53ec bebc 9c4b 113d ba28 b4bc 0744 ba3c
000000b0: 3a07 5d3d 572d d13c 726b 693d ade8 1f3c
000000c0: 3097 313d de25 363d 3b6c dfbc 5e79 583c
000000d0: 32d4 223c 9668 a9bc 093e 2bbc 1c7f dc3c
000000e0: 27fc 5bbc ff61 ebbb 3e02 b4bc 5dfb df3c
000000f0: d812 8dbc de01 dc3c 6bcb b13b 5bbb 713b
-0.024656488 0.06742513 0.014474533 -0.011841667 -0.003850708 0.015475282 -0.015301957 0.036673546
0.037748195 0.048154052 0.064750865 0.020928752 -0.04020178 0.005789624 0.0018138419 0.009778758
-0.018697476 -0.0086811185 0.04779379 0.048782576 -0.005354797 0.032914262 -0.06712833 0.024911787
0.04214199 -0.0019418602 0.012383169 -0.038232755 -0.019013593 0.031240601 -0.030552741 -0.02870619
0.04953136 -0.022456745 -0.019839257 -0.04927711 -0.0324556 0.010240381 -0.045412045 0.049463294
-0.023306048 0.035472497 -0.021992076 0.022737516 0.05396197 0.025534315 0.056987233 0.009760064
0.043357074 0.044469707 -0.027273288 0.01321253 0.009938287 -0.020679753 -0.010451802 0.02691608
-0.013426817 -0.007183313 -0.021973725 0.027341539 -0.0172209 0.02685636 0.0054258606 0.0036885354

encoder.conv.4.weight f4 [16, 64, 3, 3]
00000000: a54f 003d 4fd2 443d 9739 aa3c cbfd 273d
00000010: cd93 6c3d 10ae 033b 6bb8 f13c 97bd 69bc
00000020: 9c7d 55bb 6666 27bd 1444 a3bc 6556 25bc
00000030: 76b2 86bb a57b c5bd bcbb 273c 6f84 e5bc
00000040: a3d8 f13c 9b30 9a38 8ada 28bd d897 7a3d
00000050: db4c f23c ae46 febc 2dae b4bd 6082 3f3c
00000060: 43c0 aabc e1c5 043d 8ffb 773b 46ea 8bbc
00000070: f2a4 58bd 7f1c 9abc 3e7b 8c3b a576 24bd
00000080: 63b7 ae3d 4e05 bb3c a9e0 d63b 0943 923b
00000090: b962 a6bb 0dff 283c 8368 ba3c db62 3b3c
000000a0: 9d3b 7dbc 3782 d0bc d46d 18bd a17a 0ebb
000000b0: 6c29 0e3d 27b5 073d 58e0 363d b333 21bc
000000c0: 7c80 ad3c e958 cdbd 4b7a 35bd 8174 693c
000000d0: d354 12bc 4987 053a 52ec f43c 6605 c13c
000000e0: ba6c 963b 0b4d 1fbd 35b3 7d3c f37c eabc
000000f0: 14e9 1abd 51df 9e3c 3b10 9aba b3eb 763c
00000100: f985 42bd 16be bfbb cf43 d8bc 0004 b5bc
00000110: a564 113d 57e9 bf3c 8cd3 44bd c108 413d
00000120: 6385 c43c 3984 aebc 329e 4fbd 115f 49bd
00000130: bd04 313e 0eae 7b3d 15c4 4ebd e0c8 0b3d
00000140: 78da 2dbd 4eff 0cbd 3257 773c 1a7c 34bb
00000150: 9cd0 f73c 7db1 8dbd 0c2e 14bb baa6 b13c
00000160: 15c3 1d3c 2516 06bc 1ac4 213d 36d0 44bd
00000170: 955c e63b b4e6 26bd 5274 bbbc 34cf 25bd
00000180: 6f51 7e3c ce2f 0ebd 23f8 9f3b 626c 463c
00000190: 72b5 423a 6f84 853c 5bce ea3c 4b35 24bd
000001a0: 18bb c53b 55f9 543c 9ac6 0b3d fe71 85bc
000001b0: 5a28 0d3c 26f2 26bb dc4e 60bd 38a1 eb3b
000001c0: 3fb5 4bbc 6c0d 38bd 8b80 07bd d65c d6ba
000001d0: 9d10 b2bc 79de 2dbc 88b1 bd3b b3f0 96bc
000001e0: e6b2 033d 1ec7 ecbd fc63 9bbc a982 cfbb
000001f0: c124 0fbd ac40 51bb a338 013d 31c8 0cbd
00000200: fd0a 8bbc 737c cebc e3f7 f8bd 36bb 583b
00000210: 970e 3bbc 528c 1abb 1037 86bc 43bb 26bb
00000220: 8202 a9bc b4f3 873c b343 f9bc 4cb6 a4bd
00000230: 7a2b 0abd a7f8 663c 0623 8dbb 4e6f cd3c
00000240: dec1 8dbc 885d 14bd d2cd 08bc 2d41 be3c
00000250: f775 9f3c 7e17 ffb9 f533 12bc 1281 72bb
00000260: 6199 b4bc 6508 053d 990a 043d bda7 9c3c
00000270: 7a50 a63b 1cb0 643d fcfb 843d 322c cb3c
00000280: 5bb6 293d 79ab 153d 49fc 313c 69c5 be3c
00000290: 9d1a 983a 6ce2 00bc e881 3cbd fbea 7b3d
000002a0: b77f b23c e4f5 9dbc b530 343c 96d9 793c
000002b0: bff3 993c 652e 01bc 013d 54bd c0d4 3abd
000002c0: 91e8 13bd c2c4 a83c b964 f3bb d673 6a3c
000002d0: fe7f 193d a074 efbb 6045 1f3d dbf6 823b
000002e0: a5ee a7bd 6671 92bc c8c0 073c 1830 22bd
000002f0: fa5f 843c 71fa 29bd 93cb 613b ab8b 243c
00000300: 6952 4dbc 2762 cbbd 6cef 56bc 1318 c9ba
00000310: 00eb 42bd 7edb a73c 7cf3 d83c 0715 debb
00000320: 512d 1f3d 84c7 3abc 9186 dd3c 9ce2 8bbc
00000330: 0879 0dbd 0ace 4b3b 9d2b e83c d92f 93bc
00000340: f035 28bd 78d1 d13c 6e0f 353d e4a7 93bd
00000350: 1222 36bd 3ecf a2bb 838b 18bc 0b56 dcbb
00000360: d863 063c 8571 9fbc 35c0 7bbc c30e bebc
00000370: 718c 73bd d2f7 fbbc f56c 053c 84f5 5abd
00000380: 8911 ffba 3e30 68bd 3886 e4ba 8e7c 19bc
00000390: e3ba 51bd 5064 adbc e694 3d3d 8d1d ac3c
000003a0: 8093 d33c 0f5c 933c 8da0 89bc 32cc 86bc
000003b0: b693 863c e233 07bd e228 45bd 3bb5 08bd
000003c0: eaae 5d3c e1f0 34bc f1a8 843b a99f acbc
000003d0: 8302 dcbc 52bd e13c 8acb 06bd 50e7 25bd
000003e0: 269d eebc 42a6 303b e9bf 9ebc 1807 04bd
000003f0: 987c 29bd bbe9 a03c 00ad 8bbc 5c98 6d3c
0.031325955 0.04805213 0.020779414 0.04101352 0.05775814 0.0020092763 0.029506883 -0.014266393
-0.003257609 -0.04086914 -0.019929923 -0.010091399 -0.0041106297 -0.09642724 0.01023763 -0.02801725
0.029522246 7.352346e-05 -0.04122404 0.061179966 0.029577663 -0.031039562 -0.08822284 0.011688799
-0.02084363 0.032415275 0.003783915 -0.017079484 -0.05289168 -0.018812416 0.0042871526 -0.04015221
0.08531072 0.022829678 0.0065575433 0.0044635576 -0.0050776866 0.010314715 0.022754913 0.011437143
-0.015456107 -0.025452716 -0.037214115 -0.0021740573 0.03470747 0.033131745 0.044647545 -0.009838986
0.02117943 -0.10026724 -0.04430608 0.014248968 -0.0089313565 0.00050937064 0.029897843 0.023562144
0.004590598 -0.038891833 0.015484621 -0.028624034 -0.037819937 0.019393595 -0.0011754105 0.0150708435
-0.047491048 -0.0058515174 -0.026399521 -0.022096634 0.035496373 0.023426695 -0.04805331 0.04712749
0.023989385 -0.021303283 -0.050687976 -0.049162928 0.17286964 0.06144529 -0.050479967 0.034127116
-0.042444676 -0.034423165 0.015096473 -0.002753979 0.03025084 -0.06918619 -0.0022610454 0.021685947
0.009629031 -0.008183991 0.039493658 -0.048050128 0.0070300796 -0.04074736 -0.022882614 -0.040480807
0.015522345 -0.03471356 0.004881875 0.012110801 0.000742755 0.0162985 0.028662851 -0.040089887
0.006034266 0.0129988985 0.034124948 -0.016289707 0.008615578 -0.0025473922 -0.054762706 0.0071908496
-0.012433349 -0.044934675 -0.033081573 -0.0016354572 -0.021736437 -0.010612124 0.0057889856 -0.018425321
0.032153033 -0.11561416 -0.018968575 -0.0063327146 -0.03494716 -0.0031929417 0.031548154 -0.034370605
-0.016973013 -0.025205826 -0.12156656 0.003307057 -0.011417053 -0.0023582173 -0.016383678 -0.0025441207
-0.020631079 0.016595699 -0.03042779 -0.08042583 -0.03373287 0.014097369 -0.0043071536 0.025077488
-0.017304357 -0.03622201 -0.008349853 0.023224438 0.01946543 -0.00048654893 -0.00892352 -0.0037003201
-0.022045793 0.03247871 0.03223667 0.019122953 0.0050755115 0.055832013 0.06493375 0.024801347
0.041433673 0.036540482 0.010863372 0.023287492 0.0011604611 -0.007866483 -0.046022326 0.06150339
0.021789415 -0.019282289 0.010997941 0.01524963 0.018792985 -0.0078845965 -0.05181599 -0.04561305
-0.036110464 0.020601634 -0.0074277786 0.014309844 0.03747558 -0.007307604 0.03888452 0.0039967126
-0.08199815 -0.017876338 0.008285709 -0.039596647 0.016159046 -0.041498605 0.0034453615 0.010043065
-0.012531855 -0.099308304 -0.013118606 -0.0015342258 -0.047587395 0.020490404 0.02648329 -0.006777409
0.038861576 -0.011400107 0.027041705 -0.01707583 -0.034539253 0.003109815 0.028341109 -0.017967151
-0.041067064 0.025612578 0.044204168 -0.07209757 -0.044466086 -0.004968553 -0.009310606 -0.0067241243
0.008202516 -0.01946331 -0.01536565 -0.023200398 -0.059460107 -0.030757818 0.008143653 -0.0534568
-0.0019460182 -0.056686632 -0.001743502 -0.009368075 -0.05120362 -0.021165997 0.04628458 0.021010185
0.02582717 0.017988233 -0.01680019 -0.01645479 0.016427856 -0.033008464 -0.048134692 -0.03337596
0.013530472 -0.011043758 0.0040484597 -0.021072226 -0.026856666 0.027556095 -0.032908954 -0.0405038
-0.029127669 0.0026954566 -0.01937862 -0.032233328 -0.041378587 0.019642701 -0.017050266 0.014501657

encoder.conv.4.bias f4 [16]
00000000: 2fcf 8cbd c024 a73c 729f 89bd 36fa 86bd
00000010: ec32 47bb 30b0 753d 091f d53d 276d 6e3d
00000020: cca1 b53b 3a53 c13b 23ba 84bd 85c4 6dbd
00000030: 2db3 603c 8c2d f33c cf1b e9bc e8c4 9bbb
-0.06875455 0.020403266 -0.06719865 -0.06590693 -0.0030395342 0.05998248 0.1040631 0.058209565
0.0055429693 0.005899814 -0.06480815 -0.058048744 0.013714594 0.029684804 -0.028455643 -0.0047536977

vq_layer.embedding.weight f4 [64, 16]
00000000: 2938 3dbe b73e 863e 3279 40be 3c83 cbbe
00000010: d1f8 3ebd a8ee 8d3e cf00 6a3f 24c7 013e
00000020: 34b9 b7be 82bd da3e 2bc1 3fbf 89a6 13bf
00000030: 06d7 aabb e4b1 3f3f 22bb 58be 0de8 51be
00000040: 6d05 debe 54d9 c8bd 1803 23bf be65 cfbe
00000050: 0f88 f43e 8a87 0a3f fcf2 213f e250 cc3e
00000060: 824f abbe 551c 9a3e 2802 03bf f597 c8be
00000070: 1dba 113f 837d 023f d6d3 e63d ffba 29bf
00000080: f6b8 443f 7947 6c3f f21a 323f add9 e3bd
00000090: a690 75bf 90a8 dbbf 91ba d0bf ba0b 45bf
000000a0: c347 d53f c932 b9bf fe60 d83f 5ba8 8e3f
000000b0: 1357 9fbf e70f e5bf 4315 d3be 934b 7e3f
000000c0: 3c20 c8be 0837 82bd 2cec 26bf 36a6 b7be
000000d0: 03c2 0a3f f0cb 593d d332 adbe 6343 963e
000000e0: a270 e43e 5987 ccbe e11a cf3e 9717 823e
000000f0: c3a3 0b3f c617 e2be 888e 8b3e 8907 19bf
00000100: 3370 93bd dad3 d43e 9818 06bc 8b64 e7be
00000110: e2b4 85be c510 a33d 9f5d 613f 6688 693c
00000120: 082b 6ebe d235 bc3e 523a 31bf 86a8 12bf
00000130: 3a6c 84be 88f8 2c3f 5e90 a5be 9148 563c
00000140: 07af 023f 1b25 1c3f 656a d23e f7d3 4e3e
00000150: 64aa 0dbf fc56 8ebf 01e2 a0bf 88a3 05bf
00000160: f1df 993f 5b7a 95bf 0edf aa3f 6c65 843f
00000170: 0a72 2fbf 242d b0bf a06d 95be c9c8 143f
00000180: 0fb7 0dbf db61 58be 092b 5cbf 7987 f5be
00000190: 01e8 2b3f a8bb 713f 06a6 963f 983e 093f
000001a0: 33f1 5bbf 93ad 383f 1cb7 84bf b4e2 42bf
000001b0: 7f8f 513f 1f11 8c3f 3bbf 003e 3bf5 6ebf
000001c0: 21dd 7d3e 36db 2c3f c16b 9e3d 06b3 26bf
000001d0: 7389 dbbe 473c 9cbf c61d 94bf ea84 abbe
000001e0: 3f24 b53f a6bd 89bf 9db6 9c3f af7e 213f
000001f0: c378 2cbf ac04 acbf 435f 0cbe 0ea1 c03e
00000200: f9e0 493c 9225 343e 1600 6ebe 6ef7 fa3d
00000210: b95c 423e 628e 12bf 40a2 99bf 3310 e0bd
00000220: 701b 853f 3675 86bf 2799 9e3f ac3e 7b3f
00000230: fe72 023e f03e a1bf bc62 053e cfe4 09be
00000240: a974 19bf bbd0 5fbe 4b52 75bf 932a 26bf
00000250: 0b20 3d3f 60d5 2d3f 7a17 273f d5b7 113f
00000260: cdb0 b8be 4ef3 b43e a9a5 0cbf 1987 febe
00000270: 958a 563f 3e0c 0d3f 9973 823e c2dd 70bf
00000280: a61d 213f 0d13 533f b989 483f a276 0d3b
00000290: 5f71 86bf eeb9 44bf a963 753d 8407 0bbf
000002a0: 31a5 c33e eecc a1be 50eb 1a3e 2808 063e
000002b0: 4a2e 8ebf a852 3bbe 437b 3bbf 5898 6b3f
000002c0: 5e9d a63e 3c55 583f 75ad 053f 062c 1cbf
000002d0: 1e8e 6bbf bf13 01bf 9495 403f d770 a5be
000002e0: 4c58 b03d 8f17 383e 2ae5 00bf 3921 0abf
000002f0: d84c 82bf 55ec e83e 6aa8 2dbf 7ed5 2c3f
00000300: 020f 513f 0f11 723f df23 523f 3670 403d
00000310: 485b 88bf 12cc c7bf 9208 a7bf ed45 4cbf
00000320: e12c b33f 4ed3 9ebf 5e53 b33f 1dea 7a3f
00000330: c4ef a5bf 046e bcbf 5380 0abf 72a0 893f
00000340: 18b2 623f cbb0 7b3f c827 853f 1aad 413e
00000350: 16a2 a4bf bd03 9fbf 0370 0ebf 41b6 4ebf
00000360: 458c 543f 3bed 3ebf 4d8a 383f 6810 113f
00000370: 0cf7 b5bf bf3c 42bf 103e 46bf 3a2e 9c3f
00000380: e3ed 0c3e 368d 873e 0770 04be 9c9d dd3d
00000390: 5397 883d 7008 55bf 6c8f bfbf f6c7 60be
000003a0: b3f0 a33f 730e a2bf 4d16 c33f 1741 933f
000003b0: 253e 43bd 34fc c7bf 2cb5 d03d ee27 3f3c
000003c0: a757 143f 8945 263f fbdc 123f 754e a33e
000003d0: 235d 37bf eff0 6ebf d3ca 4fbf 4491 0cbf
000003e0: dd22 5c3f 2b31 60bf 5693 6e3f 5922 4d3f
000003f0: 940b 4abf 178e 72bf 342d ecbe 89c9 333f
-0.18478455 0.26219723 -0.18796232 -0.3974856 -0.04662401 0.27721143 0.91407484 0.12673622
-0.35883486 0.42722708 -0.74904126 -0.5767599 -0.005213621 0.74880815 -0.21165136 -0.20498677
-0.43363515 -0.09807077 -0.63676596 -0.4050731 0.47760054 0.54113066 0.6326139 0.3990546
-0.33459097 0.3009974 -0.51175165 -0.39178434 0.5692461 0.50972766 0.11270873 -0.6630096
0.7684473 0.9229656 0.69572365 -0.11125503 -0.9592384 -1.7160816 -1.6306936 -0.7697102
1.6662525 -1.4468623 1.69046 1.1145128 -1.2448448 -1.7895478 -0.4122716 0.9933407
-0.39087093 -0.06358153 -0.6520412 -0.35868996 0.5420229 0.053173006 -0.33827838 0.29348287
0.44617182 -0.39947012 0.40450194 0.25408623 0.54546756 -0.44158763 0.2725718 -0.5977712
-0.07199135 0.4156788 -0.008184575 -0.45193896 -0.26114565 0.07962183 0.8803348 0.014253711
-0.23258603 0.36759812 -0.69229615 -0.57288396 -0.2586382 0.6756673 -0.32336706 0.013078825
0.5104832 0.6099412 0.41096798 0.20198046 -0.5533812 -1.1120296 -1.2568971 -0.52202654
1.2021466 -1.1677965 1.3349321 1.0343451 -0.68533385 -1.3763776 -0.291852 0.58118874
-0.5535745 -0.21131079 -0.86003166 -0.4795492 0.67150885 0.94426966 1.1769416 0.53611135
-0.85914916 0.72139853 -1.036838 -0.7612717 0.8185958 1.0942725 0.12572949 -0.9334294
0.24791385 0.6752199 0.07735396 -0.6511692 -0.42878303 -1.2205895 -1.1571586 -0.33499843
1.4151686 -1.0761001 1.2243229 0.6308393 -0.6737177 -1.3438926 -0.13708214 0.37622875
0.012321704 0.17592457 -0.2324222 0.12254225 0.18980683 -0.5724851 -1.200264 -0.1094059
1.0398998 -1.050452 1.2390488 0.98142505 0.12739179 -1.2597332 0.13025945 -0.1346619
-0.59943634 -0.21856968 -0.95828694 -0.64908713 0.7387702 0.6790371 0.652702 0.5692113
-0.36072388 0.35341877 -0.5494028 -0.49712446 0.8380521 0.55096805 0.2547882 -0.94088376
0.62935865 0.82450944 0.7833515 0.0021585603 -1.0503348 -0.76846206 0.059909496 -0.5430834
0.3821197 -0.3160166 0.15128827 0.13089049 -1.1107876 -0.1829325 -0.7323496 0.92029333
0.32541937 0.8450506 0.522178 -0.61004674 -0.9201373 -0.50420755 0.7522824 -0.32312652
0.08610591 0.17977737 -0.50349677 -0.53956944 -1.0179701 0.45492807 -0.67835104 0.67513263
0.81663525 0.9455728 0.82085985 0.046982013 -1.0652857 -1.5609152 -1.304949 -0.797942
1.3998071 -1.2408235 1.4009817 0.9801348 -1.2963796 -1.4721074 -0.5410206 1.0752089
0.88553 0.9831664 1.0402765 0.1891369 -1.2861965 -1.2423016 -0.55639666 -0.8074685
0.83026534 -0.74580735 0.7208603 0.5666566 -1.4216018 -0.7587394 -0.7743845 1.2201607
0.13762622 0.26474923 -0.1293336 0.10821077 0.06669488 -0.83216 -1.4965644 -0.21951279
1.280783 -1.266066 1.5241181 1.1504239 -0.047666688 -1.5623841 0.10190806 0.011667235
0.57946247 0.6494985 0.5736844 0.31895795 -0.7162649 -0.93336385 -0.8116886 -0.5490916
0.859907 -0.87575024 0.93193567 0.80130535 -0.78923917 -0.9474806 -0.46128237 0.70229393

decoder.conv.0.weight f4 [64, 16, 3, 3]
00000000: 8fcb 24bc ddb0 bcbc f5b4 90bc 6019 1ebe
00000010: 4058 053e f57f 19bd 4952 4abd e328 4b3d
00000020: 41b1 053d fed5 643d 956f 933d 21b2 803d
00000030: e130 87bd c3d4 5b3c 3243 82bd b657 01bd
00000040: d716 a03d 047a 1dbd a1dc ce3c d347 3cbd
00000050: 861d 633c 4da5 59be 3e93 5e3e 983c 21bd
00000060: a3d6 54bb 3ccc 5dbc 7a72 7c3b 29ed c7bc
00000070: 94e4 3c3d 1148 143d 6e58 243d 9acd 4a3e
00000080: fdb9 7dbe 9c4d 39bd 0553 a7bd 4e01 0d3e
00000090: e9ba e03c b7c4 14bd 8d03 0a3c 145c b83d
000000a0: 6d39 eabd 1bde 0c3e 8302 2abc f71e 8b3c
000000b0: 41b0 80bd 5e8e 933d 5bea 57bc 394c c43b
000000c0: 936d 01bd 981a 01be 5173 be3d beaf 53bd
000000d0: b619 7b3d 9cf7 033c e5ec bb3d 8b99 90bc
000000e0: 9f82 e7bb bb08 8f3d cf92 68be bc30 93bd
000000f0: b453 29bd 3ba5 2d3e db99 c03d 4e32 d03d
00000100: 8974 843d 7234 1a3d 4c4d 023e b1e9 febd
00000110: 6a2b 1c3e 6252 86bd 9a9a 0bbd dd20 5e3c
00000120: 5e36 81bd 3eb0 9f3d 5243 5fbb 805b 76bd
00000130: 562c 0c3e 728c ee3d 204a 25bd 97bc 91bd
00000140: 6060 47bd 11f8 c9bd 9a5e 6fbd b110 98bd
00000150: bbd7 863c 2a5b 2fbe e1ba 02be 9cc4 61bb
00000160: 3458 bf3d dcd4 0c3d 31a0 e93d 0278 c7ba
00000170: 99a6 a13d 1c6d 4cbd 7ffa 4b3e 14f0 073d
00000180: 335f 2fba d0c5 debd bc04 ba3b 9401 b23d
00000190: 04f5 c7bc 995c b3bd 7f54 b53d a2b3 803e
000001a0: 4467 d3bd ebeb 8ebd 9c58 61bd 887b 8b3d
000001b0: 7abf d9ba 78f7 96bd 3146 853d 1389 c53d
000001c0: 4916 3fbd 2815 9cbc 2314 f9bd 1c3e e0bb
000001d0: 274b 8ebd ec06 a1bd f763 a0bd 0767 af3a
000001e0: 6e2a 413c 0e96 3fbe ce51 edbd 54b7 d7bc
000001f0: 607c 043e b99b 1c3d b96a 17bd a002 68bd
00000200: c2ec 05be 094c 8d3d c08f 3a3d a73d 80bc
00000210: d1db bf3c ac16 23be 734d 5f3d 3825 67bc
00000220: 55a0 373d 2801 2ebd 25f2 39be ce43 b83d
00000230: 73bd e23d 2870 65bb 2b42 25bd 2945 0d3d
00000240: c7d5 863d 2174 0fbe e94d 10be c374 edbb
00000250: e02c 313e 6929 f4bc 4c55 dcbd 22fa 3dbd
00000260: 5228 1ebe a916 2bbd b148 4dbd f449 b73d
00000270: 5571 2cbd 9393 fe3d 0f06 a3bd b482 5cbd
00000280: d313 03bd 9199 b1bd ea68 4abd b4cd 773d
00000290: a225 e3bc 200a 2bbd a90e 893e 41b4 d93c
000002a0: ad24 203e 3599 8d3d bfad 6c3c bc24 ed3b
000002b0: 2b21 87be 2759 39be 4476 173e 57f4 353e
000002c0: 2783 80be 618c 703d 58b2 bebd 1bb4 32be
000002d0: 289f 90bc f787 e6bd c9ce 0a3e 640e e83d
000002e0: 0cd0 5ebe 30e9 8ebc 53cc 953d 8192 a33d
000002f0: 3994 e3bb a503 613d c5c8 43bd 756d 843d
00000300: 2f24 523d 6968 15bd e8ca a5bc 28ad 21bd
00000310: ccd9 cfbd e03a 6ebd 406d 2fbd 4987 49bc
00000320: 594d 803d 4f55 ee3c 09f5 f13b b87b 3ebd
00000330: 2cab 86bc f3f7 57be c300 b7bd 2bef 0e3d
00000340: 973d 913d bc4c 713d 6a63 9d3c 5be3 1dbe
00000350: fd84 5b3e f2cf 32bc 56c7 f33b 378e 593d
00000360: 61ec 7bbd eac2 d23d bc48 f93c d8b5 c43c
00000370: 360a e3bc 86c1 423e 06e3 353d bb62 2eba
00000380: 1c6d 733d 9480 03be a45c c4bc d3a9 173c
00000390: d996 083d 7028 143d 7f22 d1bd 4937 bbbc
000003a0: 9500 b8bd 7c89 fdbd 10c1 773d b0b0 57bd
000003b0: 2722 1a3d dfeb 23bd 107f aa3d 41ab de3c
000003c0: 5579 1cbd c6c4 783d dc43 ea3d 3d4d 7abd
000003d0: 99ec eabd 2c90 063d 1a8a 233d 4601 713d
000003e0: 258c 1ebd c44a fd3c c9ae 1f3d 58d7 00be
000003f0: b629 7f3c 10f0 bebc d693 b1bc 8e0f 353e
-0.010058298 -0.023033554 -0.017664412 -0.15439367 0.13021946 -0.037475545 -0.04939488 0.04959954
0.032639746 0.05586814 0.07199017 0.062839754 -0.0660112 0.013417426 -0.06360473 -0.03157779
0.07816856 -0.03844644 0.025251688 -0.045966934 0.013862019 -0.21254463 0.21735856 -0.039364427
-0.0032476566 -0.013537463 0.0038520382 -0.024405079 0.046116427 0.03620154 0.040123396 0.19804993
-0.2477798 -0.04524003 -0.081701316 0.13770029 0.027432876 -0.036320414 0.008423698 0.090019375
-0.11436734 0.13756602 -0.010376575 0.016982539 -0.06283618 0.07204889 -0.013178433 0.0059905318
-0.03159864 -0.12607801 0.092993386 -0.051681273 0.061303817 0.00805464 0.091760434 -0.01765134
-0.007065132 0.06984087 -0.22712253 -0.0718703 -0.04133959 0.16957562 0.094043456 0.10165845
0.0646754 0.037647672 0.12724799 -0.12446917 0.15250936 -0.06558682 -0.034082986 0.01355764
-0.06309198 0.077972874 -0.0034067226 -0.060145855 0.13688788 0.116478816 -0.040353894 -0.07116049
-0.048675895 -0.09861768 -0.05843983 -0.07425059 0.01646029 -0.1712462 -0.12766601 -0.0034449464
0.09342995 0.034382686 0.11407507 -0.001521826 0.07893104 -0.049908742 0.19919775 0.03318794
-0.0006689906 -0.108775735 0.005676834 0.08691707 -0.024408825 -0.08757896 0.08854007 0.2513705
-0.10322431 -0.069785915 -0.055016145 0.06810671 -0.0016612851 -0.0737142 0.065075286 0.096452855
-0.046652112 -0.019053057 -0.12162044 -0.0068433415 -0.06947928 -0.07862648 -0.07831567 0.0013382145
0.011789901 -0.18709585 -0.11587869 -0.026332535 0.1293807 0.038234446 -0.036967013 -0.05664313
-0.13078597 0.06899268 0.045547247 -0.015654398 0.023420246 -0.15926617 0.05451722 -0.014107995
0.04483064 -0.04248157 -0.18158777 0.08997308 0.11071291 -0.0035009477 -0.040346306 0.034489784
0.065837435 -0.14009143 -0.1409222 -0.007246585 0.17302275 -0.029804902 -0.107584566 -0.046381123
-0.15445068 -0.041769657 -0.050118152 0.08949652 -0.04210027 0.12430491 -0.0796014 -0.053835586
-0.032001328 -0.086718686 -0.04941646 0.06049891 -0.027727906 -0.041757703 0.26768997 0.02657521
0.1563899 0.069139875 0.014445721 0.007237045 -0.26392493 -0.18100415 0.14791209 0.1776899
-0.2510006 0.058727626 -0.0931136 -0.17451517 -0.017654017 -0.11256402 0.13555445 0.1133087
-0.21759051 -0.017445177 0.073143624 0.07986928 -0.0069451598 0.054935116 -0.04779889 0.0646619
0.05130404 -0.036476526 -0.020238355 -0.039471775 -0.10148963 -0.058161616 -0.0428288 -0.012300321
0.06264753 0.029093413 0.007383947 -0.046504706 -0.016439043 -0.21090679 -0.08935692 0.034896057
0.070918255 0.05891107 0.019212443 -0.1541876 0.2143745 -0.010913836 0.007439534 0.053114142
-0.061504725 0.10291083 0.03043019 0.024012491 -0.02771483 0.19019136 0.04440596 -0.0006652285
0.059430227 -0.12842017 -0.023969956 0.009256798 0.033346985 0.036171377 -0.10211658 -0.02285351
-0.08984486 -0.12379739 0.060486853 -0.052658737 0.037630226 -0.040019866 0.083250165 0.02718127
-0.03820165 0.060734533 0.114387244 -0.061108816 -0.11470909 0.032852337 0.039926626 0.058839105
-0.03870787 0.03091944 0.038985047 -0.12582147 0.0155739095 -0.02330783 -0.021676939 0.17681715

decoder.conv.0.bias f4 [64]
00000000: 4382 a73d 855c ae3c d4ab eb3d c6aa cc3a
00000010: f4f2 7b3d 6e9e bd3d cd7e 6dbe 0435 963d
00000020: a7f4 853d 9ba6 8dbc fe34 cdb9 2320 ae3d
00000030: d447 2e3e 71a4 073e 9869 943d fc66 893d
00000040: fff4 1f3d 3329 973c e87d b53d 36cc d13d
00000050: d34a f23d 0281 c43d a9d8 b93d 8e91 503d
00000060: 202c 9f3d ad96 243b 9924 da3d 73c2 cc3d
00000070: df24 053e 7039 b23d a4f7 813d dd9e f43d
00000080: 679f 71bb ef7a 563d 5e5c 233d 529c 163d
00000090: 1d2c 893e d66f 4b3c 16b5 683e db98 4fbe
000000a0: bbaa 833d cd5a b63d f3d5 19bd 66b8 183d
000000b0: 4653 fc3d 5972 2ebd 623b a73d dd0b 8e3e
000000c0: 61b3 db3d b778 21bc ad75 c33d 4e0e 713e
000000d0: 1223 a83d e734 2c3d d053 733c d759 14bd
000000e0: ffd4 623d 2ae2 733d 6449 9b3c 32d8 f23c
000000f0: 911e 193d 8d28 023e f96e b43d 7f00 a53d
0.08179142 0.021284351 0.11507383 0.0015614859 0.061510995 0.09258734 -0.23192902 0.07334331
0.06540804 -0.017291358 -0.0003914013 0.08502223 0.17019588 0.13246323 0.07246703 0.06709096
0.039052006 0.018452263 0.08861905 0.10244028 0.11830678 0.09594919 0.09074528 0.05092006
0.07772088 0.0025114224 0.10651512 0.09998026 0.13002346 0.087023616 0.06346062 0.11944363
-0.0036868693 0.052363332 0.03988301 0.036770172 0.26791468 0.0124168005 0.22725329 -0.20273153
0.06429049 0.089040376 -0.037557553 0.03728523 0.12320571 -0.04258952 0.08165623 0.27743426
0.10727573 -0.009855441 0.09543929 0.23540613 0.08209814 0.04204264 0.014851525 -0.03621849
0.05537891 0.05954186 0.018955894 0.029644106 0.037382666 0.12710781 0.08810229 0.08056735

decoder.conv.2.weight f4 [64, 32, 4, 4]
00000000: 6c24 043e b1d3 cf3d 49cf d13c 6205 b3bc
00000010: 6eec 3f3c fff9 0ebe e470 15be 45fd 5a3c
00000020: 44a3 d43d f12d 783e 31c8 24bd 607f 02bd
00000030: a71d 20bc a0c8 9d3c 7dd6 0c3e 8ab4 57bc
00000040: 12ac 413c fa3b b23c 4ba6 8f3d b136 05bd
00000050: 551b 84be 3ed1 81bd 1a14 1b3e dc8b ae3a
00000060: 6587 5d3d 58bc 65bc 32fc 3d3d 00ea 193e
00000070: a718 e9bb e680 413d fcf1 f73b 3994 033c
00000080: f70d 0dbe b666 cdbd 017b 343d 6e90 3a3c
00000090: 9ae0 9b3d 3adf 1dbd 2637 67bd 015e 863c
000000a0: 0383 503d e2fd 9cbc 2dab b9bd 0fb0 dcbd
000000b0: 68df 443c db9d 8f3c d7cc 0dbe bf46 4abd
000000c0: f79f 0ebd f4e4 9e3c 33b6 043e 97c0 aebc
000000d0: bdc0 d13d 1174 33bd 3536 863d 4149 2f3b
000000e0: d9da 62b9 af5a 803d 6093 303c c60d 74bb
000000f0: f81f 103d 270f 4f3a 3756 2cbc dddb e0bb
00000100: da7e bf3d 0905 01be fbfc a5bd b769 2bbd
00000110: 4ad4 063e 1480 41bc 011b 45be 1f23 7ebc
00000120: 1bf4 083d 75c4 d33c 523e 633c 41b9 113e
00000130: d7c2 babd 6663 7c3c 89c8 9abb a909 96bd
00000140: b5ac 2ebc d7da 253d 0d3c 0ebd 3282 e93c
00000150: 209a 0abd 320a fe3d 4a06 ffbd 0a64 c63c
00000160: ddec 143e 151b f83d 1e45 bb3d 9048 f83c
00000170: 1a10 043e 3d36 213e f66b 35bc 19cb 233d
00000180: 840e 583c 03ac 483d 17ce 0fbe ee11 83bd
00000190: aec2 2b3d b6d8 64ba 7df5 c2bd 39bd 223e
000001a0: f2a5 a63d c144 1f3e 09dc bbbd d999 a5bd
000001b0: 3f89 6dbc 1f9a fe3c f475 c23c b937 853d
000001c0: aba0 f43d 7d62 99bc 1c43 c9bc 9f22 c13b
000001d0: 2da2 d03d 0170 fcbd 64e5 2dbd b312 ea3c
000001e0: e3c3 163e 094f 553d 9b84 163d ab65 053d
000001f0: fa99 903c 70d0 e9bd 77f8 943d 524f 4f3d
00000200: 065e acbd 3c4b a1bc d703 b53c ad9a 4bbc
00000210: 612f bbbc 95e6 cc3d a871 b5bd 464f 4fbd
00000220: 11c4 513d f914 1c3d 3822 8c3c d85e bb3d
00000230: 3359 01bd da8c a9bc 3f3a 27bd bcf1 953c
00000240: 2431 413d 9211 07be 29d3 323d 85ae de3c
00000250: 753a 3c3e 5b74 d4bc 2148 78bc 9036 2ebd
00000260: 7f17 293d d528 193e 50f9 743b 799f 503d
00000270: cb8d 223e 9fff 763d 9590 79bd 9c9d 213d
00000280: 40e2 9b3c d418 63bc c7d9 103d 2369 c0b9
00000290: 8f69 5b3d 2199 813d 67a4 c9bb 24fd da3c
000002a0: efd9 503b d316 433d bb8a bbbb a0ae 1d3d
000002b0: 2aee 763d 942f dd3c ab3f c03c eb37 b63d
000002c0: d81c de3d 4eb9 79bb 5e2c 22be 47ed a0bd
000002d0: 6b48 643c efdf 4cbd 1bd1 f7bd 53ee ae3d
000002e0: 98f2 903c e3a9 9bba d40d 2c3e 6df2 073e
000002f0: 9392 e33b 1db3 a33d 2fc7 1b3d 8720 fd3d
00000300: 0d62 1c3d 17fd 133d 94f9 88bc 0105 43bd
00000310: 7257 1c3e ebda 0e3d 5322 dc3c 4f85 b7bc
00000320: 3d8e 073e 623a cd3d 291b 3bbd f27f 6bbc
00000330: b260 373d 0d41 e2bc e0d9 613c e9c2 433c
00000340: 363d 843d a085 fbba 6b7f e73d 03d5 b33d
00000350: 8221 f13d e5ff 2dbd eef6 913d 8b6e b6bc
00000360: f31d 21bd 8f54 ae3c 9901 253d af8b f9bc
00000370: 1f5a 973d 294f 42bd 8e87 703b 9328 1e3c
00000380: 8116 a93c 35a0 75bc ae09 623d 330c 34bb
00000390: 4073 a2bd ca07 dfbd 847f 77bd 0b63 a63d
000003a0: fe8d 6a3d bff8 aabc 1db9 913c ec5b 5dbb
000003b0: 801c 02bd dbfd 033e d0e7 373c 37c4 3e3d
000003c0: 0d11 30be c455 8a3d 2e3d 083d 9c80 553d
000003d0: 79fd 74bb e30c c5bb 794b 2c3c e0d1 79bd
000003e0: de43 203d 2f81 223a 52c3 1b3c d5d5 72bd
000003f0: cae5 d2bb 3fe1 5e3d eaa1 2bbc 7b51 343c
0.12904519 0.10147799 0.025611537 -0.021853153 0.011714084 -0.13962553 -0.14593846 0.013366048
0.10382703 0.24236275 -0.04022998 -0.031859756 -0.009772695 0.019260705 0.13753696 -0.013165602
0.01182081 0.021757115 0.0701414 -0.03252286 -0.25802103 -0.06338738 0.15144387 0.0013316828
0.0540842 -0.014021955 0.04638309 0.1503067 -0.0071135345 0.047242068 0.0075666886 0.0080309445
-0.13774858 -0.10029356 0.04406262 0.011386974 0.07611199 -0.038542964 -0.056449078 0.016402246
0.050906193 -0.01916403 -0.09065852 -0.10775768 0.012016155 0.017531326 -0.13847671 -0.049383875
-0.034820523 0.019396283 0.12960128 -0.021332068 0.1024184 -0.04381186 0.06553308 0.0026746544
-0.00021634567 0.062672965 0.010777324 -0.0037239655 0.035186738 0.0007898681 -0.010518602 -0.0068621472
0.09350367 -0.12599577 -0.08104893 -0.041848864 0.1316692 -0.011810321 -0.19248582 -0.015511303
0.033435922 0.025850514 0.013869839 0.14230825 -0.09119194 0.015404558 -0.0047236127 -0.07326061
-0.010661294 0.040491905 -0.034725238 0.028504465 -0.03383839 0.12404288 -0.124523714 0.024217624
0.14543481 0.121145405 0.091440424 0.030308038 0.12896767 0.15743347 -0.011073103 0.03998861
0.013187055 0.04899217 -0.14043461 -0.06399904 0.041933708 -0.0008729802 -0.095194794 0.15892495
0.0813712 0.15553571 -0.09172828 -0.08085985 -0.014498054 0.03107935 0.023737885 0.06504769
0.119447075 -0.01872372 -0.024568133 0.0058940197 0.101871826 -0.123260505 -0.042455092 0.02857337
0.14723162 0.052077327 0.036747556 0.03256766 0.017651547 -0.114167094 0.072739534 0.050612755
-0.08416371 -0.019689195 0.022096558 -0.012427014 -0.02284974 0.100049175 -0.08859569 -0.05061271
0.051212374 0.03810594 0.01710616 0.091489494 -0.031579208 -0.020697046 -0.040827032 0.018303744
0.047166005 -0.13190296 0.04365841 0.027182827 0.18381675 -0.025934389 -0.015153916 -0.042532504
0.041282173 0.14956982 0.0037380047 0.050933335 0.15874402 0.060302373 -0.0609289 0.03945695
0.019028783 -0.0138609 0.03536394 -0.00036699427 0.053567465 0.06328035 -0.0061536315 0.026732035
0.003186818 0.04762919 -0.005723325 0.038496614 0.060285725 0.027000226 0.02346786 0.08897384
0.10845345 -0.0038104835 -0.15837237 -0.07857757 0.013933281 -0.050018247 -0.121004306 0.085415505
0.017693803 -0.0011876192 0.1680215 0.13276072 0.0069449632 0.079931475 0.038031753 0.1235972
0.038179446 0.036130037 -0.01672057 -0.047612194 0.15267733 0.034876745 0.026871836 -0.022402434
0.13237853 0.10020901 -0.0456802 -0.014373766 0.04476995 -0.02761891 0.013784856 0.011948326
0.064569876 -0.0019189604 0.113036 0.08780863 0.11773969 -0.04248037 0.07127176 -0.022269508
-0.039335202 0.021280555 0.040284727 -0.030462114 0.07390236 -0.047438774 0.003670189 0.009653228
0.020640614 -0.01499181 0.055185013 -0.0027473092 -0.079321384 -0.108901575 -0.060424343 0.0812436
0.05726432 -0.020870565 0.017788464 -0.0033776714 -0.03176546 0.12889807 0.011224702 0.046573844
-0.17194004 0.0675464 0.03326147 0.052124605 -0.0037382527 -0.006013499 0.010516041 -0.060991168
0.039127223 0.00061990594 0.009507017 -0.059285957 -0.0064360844 0.05441403 -0.010475615 0.011005755

decoder.conv.2.bias f4 [32]
00000000: e176 c83d 21ba a8bb b380 a13d 5787 15be
00000010: e44b f23d 077a 9a3d 1c64 5e3d b2b3 bd3d
00000020: 9cc5 b03d b5d3 8e3d 5f56 fbbd 439b 693d
00000030: 1a0f 6a3d 62dc 45bd f6ad a93b 8f21 d73b
00000040: 8158 a23d 7cc3 743d 66fa 5e3d 76ce 013e
00000050: f0ae 06be 5499 e7bd 08f5 823d 5403 af3d
00000060: 9e84 dc3d 3aac a13d 6ef7 b53d 9742 183d
00000070: aeb0 343e dc6d 6b3d d8b9 46bb 4b2e 943d
0.09788299 -0.0051491414 0.078858756 -0.1460241 0.11830881 0.07542806 0.05429469 0.0926279
0.08631441 0.06973974 -0.12272333 0.057032835 0.05714331 -0.048305877 0.0051782085 0.00656528
0.07927037 0.05975674 0.054438017 0.12676415 -0.13152671 -0.11308542 0.06394392 0.08545557
0.10767482 0.07894178 0.08885084 0.03717288 0.17645523 0.057477817 -0.0030323174 0.07235392

decoder.conv.4.weight f4 [32, 1, 4, 4]
00000000: 9fc2 0dbe e342 1cbe c579 03be c13d 6f3d
00000010: 8f65 76be 5ca7 91be c0b5 b0be 82b0 f73d
00000020: 7f23 9c3d 9459 74be c375 aebd 44e3 02bc
00000030: b984 9b3d f6a9 213e da95 543d 5f19 1d3d
00000040: 162f 673e da21 33bd 2a98 5fbe f965 c9bd
00000050: 68dd 393e 3298 7c3d 999d 80bd 8f86 b2be
00000060: e1e7 523e da1e 9c3e 0ab8 303e 58fd 9abe
00000070: c607 90bc 8331 233e 4ece f33d e2e3 c0bc
00000080: 81bd 90bd 09c7 a53d a081 0b3e e807 083e
00000090: 2961 b6bc a2f8 653e d2c7 3e3e 0401 8c3d
000000a0: 4ac6 a13d 2b29 103e 570e 8fbe ffec ddbe
000000b0: 5ec1 3d3e 6210 5e3d 5180 98be 984c 8cbe
000000c0: ef4a 0f3e 3fe3 a43c ed9f e63d 3788 a73b
000000d0: d231 823d 7dae 143e 1d46 8f3d 9c94 b23e
000000e0: 40ce 963e 630c 3f3e 4e08 843d 7138 863c
000000f0: 5942 a83e 5a5f 813e 7c0c 59bc cbd4 63bd
00000100: a224 11bc 602e fb3d 8f88 613e 75fe 823d
00000110: 9dab 203e 3b99 d5bc 04b2 e1bd 2075 9f3a
00000120: 9538 5abe 6584 21be 64cf 93be a1c0 c9bd
00000130: 1f15 f1bd 8bda b3bd 4766 773c 5e06 513d
00000140: e83f 49be 274b 36be f770 d93d 1084 213e
00000150: f0bc a83d 5ad7 6fbe 501c f7bd 947b 3b3e
00000160: 7d0a 92bc 0399 ffbd f324 fbbd 9458 6abe
00000170: 37ff 04be efdb 6ebd b816 08be 0189 a53d
00000180: ee86 05be 1046 a3bd c084 95be e42d 013e
00000190: 4d03 143e 735f 16bd d923 b0be 2e6d 16be
000001a0: e319 0dbe 404d d6bd 8eca 61bd 22e0 133e
000001b0: 5ffb a1bb c1a0 43be e88b 70be ea13 2f3e
000001c0: 3c64 5f3e 8ad5 983d fd4d ed3d 551d 0d3c
000001d0: 4b22 e0bd 3494 6fbe d0bb a1be d5c8 e7bd
000001e0: 530d ba3d d811 71be dc33 8fbe 012e 46be
000001f0: 7ff5 1e3e 0a0e 2ebd eee7 243d ea1a 1fbd
00000200: 7eec 573d 773a 15bd 3eba 57be 8ded ea3c
00000210: b859 e73d 1afd 90be 5146 5fbe d30a 8a3d
00000220: 954a 97bd f23e bbbe 78dc f1bd 806b 723d
00000230: 0649 7cbe 0e95 9cbe 0347 2ebd c0a4 133e
00000240: ebb6 07bd a424 093e 500c 71be 625c 933d
00000250: 4032 65be 355a 95be 2ebe ef3d 30bf 91bd
00000260: c36c c03c a4c3 abbe 7464 c43d aa56 80bd
00000270: 9583 1d3e 85e1 22be 0a0a e2bd ada8 02bd
00000280: ebb5 ce3d b006 3a3d 377b 043e 084c da3d
00000290: 6960 f6bd 1e5c 563e 1158 8f3e 2cc3 223e
000002a0: cf22 f5bd 88c8 0a3e 4b54 4b3e a90f 203e
000002b0: cef8 18be c8cc d03b 9497 39be 1046 04bd
000002c0: f47f 40bd 7fd8 473b 87cd b93d 40d6 a83d
000002d0: f838 5ebe 3fc4 8ebe 5e45 c2bc 24fc 373e
000002e0: 3cfc 7cbe d53f 2abd d5e5 a4be 9ebf 90bd
000002f0: c3e3 83be 24c5 7ebe 8bbb 0a3d 0bfe 053e
00000300: 66dd 903d 896e 71be 8222 5abe b564 91bd
00000310: 961f 45be 2fe9 8dbe 3bf7 cebd 4b55 573d
00000320: a63b 76be 7e39 f63d 013a 853e 9550 d13d
00000330: 24b6 c9bd ca92 0a3e 5c35 e23d 8212 1abe
00000340: 6266 57bd 0b23 823d 9bbd 24be ebc8 dfbd
00000350: b953 473e 4248 4a3e 13ba 783e 1fc5 103e
00000360: 3673 763e 4f19 813e 1743 713e 72fb 8a3e
00000370: fe34 643e 9cfa 9dbc d77e b5bc 630e 7e3d
00000380: 3d7f 893e a54b c83d 6f10 6b3c b9d7 18be
00000390: b2c2 853d 49d1 c1bd b6b1 debb 4659 ac3d
000003a0: c134 94bd 913f 63be 2536 3ebe afb0 14bd
000003b0: 5d41 ff3d 74ad 813e 4836 463e 4cbb 893e
000003c0: 13b3 8dbe b1ae 2abe 16ab 2b3d 7fa7 0e3d
000003d0: a572 2dbe 8bac a33d bbca e83d bc53 853d
000003e0: d07f 28be e0b8 9a3e ad6b 8f3e 000c 3ebe
000003f0: 3f9b e4bd a613 4d3e 193a 413e bbf0 05bd
-0.13843773 -0.1525989 -0.1283942 0.058408502 -0.24062179 -0.28447998 -0.34513664 0.12094213
0.07623958 -0.23862296 -0.08518555 -0.007988755 0.07593674 0.15787491 0.051900722 0.038354274
0.22576556 -0.043733455 -0.2183539 -0.09833903 0.18150866 0.061668582 -0.06280059 -0.34868285
0.20596267 0.30492288 0.17257705 -0.3027141 -0.017581832 0.15936856 0.11904584 -0.023546163
-0.07067395 0.080946036 0.13623667 0.13284266 -0.022263126 0.22458127 0.18630913 0.06836131
0.07899149 0.14078204 -0.27940628 -0.43344876 0.18530795 0.054214843 -0.29785398 -0.27402186
0.13993429 0.02012789 0.11260972 0.0051126736 0.06357159 0.14519687 0.06995795 0.34879005
0.2945423 0.18657069 0.064468965 0.016384335 0.3286312 0.2526806 -0.013247605 -0.055622857
-0.008858832 0.12264705 0.22024749 0.0639619 0.15690465 -0.026074043 -0.11020282 0.0012165643
-0.21310647 -0.15773161 -0.28869164 -0.09851194 -0.11771607 -0.08781918 0.015100068 0.051031463
-0.19653285 -0.17802106 0.106172495 0.15773034 0.08239162 -0.23421994 -0.12065947 0.1830886
-0.017827267 -0.124803565 -0.12262907 -0.22885352 -0.12987982 -0.058315214 -0.13289917 0.08082772
-0.13039753 -0.07972348 -0.29202843 0.12615162 0.14454384 -0.03671212 -0.3440235 -0.14690086
-0.13779406 -0.10463953 -0.05512481 0.14440969 -0.004943296 -0.19104291 -0.2349087 0.1709744
0.2181558 0.07462604 0.11587141 0.00861295 -0.10944041 -0.23396379 -0.31588602 -0.113176025
0.09084573 -0.23541963 -0.27969253 -0.19353487 0.15523337 -0.042493857 0.040260248 -0.038844027
0.05271577 -0.03643271 -0.2106714 0.028677726 0.11296409 -0.283181 -0.21804167 0.06740346
-0.07387272 -0.3657146 -0.11809629 0.05918455 -0.24637231 -0.3058247 -0.04254819 0.14418316
-0.03313343 0.13392884 -0.23539853 0.07195355 -0.2238245 -0.29170385 0.11706196 -0.07116544
0.023489362 -0.335477 0.095894724 -0.0626653 0.15382226 -0.15906341 -0.11037071 -0.031899143
0.10093292 0.045416534 0.12937628 0.10659033 -0.120301075 0.20933577 0.27996877 0.15894765
-0.1196953 0.13553059 0.19856374 0.15630974 -0.14938661 0.006372068 -0.18124229 -0.03229338
-0.046997026 0.0030494032 0.09072404 0.0824399 -0.2170142 -0.278841 -0.023714717 0.17967278
-0.24705595 -0.04156478 -0.32206598 -0.07067798 -0.25759706 -0.2487989 0.03387026 0.13085191
0.070734784 -0.23577322 -0.21302226 -0.070992865 -0.1925033 -0.27716967 -0.10105749 0.052571576
-0.24046192 0.120226845 0.26020816 0.10220448 -0.09849194 0.13532558 0.11045334 -0.15046123
-0.052587874 0.0635434 -0.16087954 -0.10926994 0.19465531 0.19754127 0.24289732 0.14137696
0.24067387 0.2521462 0.23560749 0.27144963 0.2228584 -0.019284539 -0.022155209 0.06202544
0.26854888 0.09780053 0.01434718 -0.14926042 0.06531276 -0.09463746 -0.006796087 0.08415465
-0.072366245 -0.22192217 -0.18575342 -0.03630131 0.12463639 0.25327647 0.19356644 0.2690071
-0.27675685 -0.16668202 0.041911207 0.034827705 -0.16938265 0.07991894 0.11366793 0.06510112
-0.16455007 0.30219173 0.28011838 -0.18559265 -0.11162423 0.20027027 0.18869819 -0.03270028
