vqvae_mnist.pth (torch, 350408 bytes, 12 tensors)

encoder.conv.0.weight f4 [32, 1, 4, 4]
000000 34 4b 08 bc 38 1c 8b be 35 c4 39 be 7d b6 48 3d
       -0.008318711 -0.27169967 -0.18141253 0.04900216
000010 a3 c4 68 3b fc 4a 96 3d 88 05 23 be f6 2a 9b be
       0.0035517595 0.07338521 -0.15920079 -0.30306214
000020 8b e0 34 3e 18 10 14 bb 4e b8 7d be 56 fc f3 b9
       0.17663781 -0.00225926 -0.24777338 -0.00046536577
000030 54 21 fc bd 9f 33 87 3e 33 0e 12 3e 7d c7 8a be
       -0.12311044 0.2640657 0.14263229 -0.27105322
000040 7b 82 c4 bd 79 ea 55 be 59 c5 04 3e 8a 13 38 be
       -0.095952 -0.20890225 0.12965907 -0.17976204
000050 04 1b a6 3d ac 34 e1 3d a8 44 24 be 49 f7 13 3e
       0.081106216 0.109963745 -0.16041815 0.144498
000060 87 67 1f 3e f6 c4 d7 3b b1 1a 5e 3e e1 54 30 3e
       0.15566836 0.006584759 0.2168987 0.17219879
000070 a6 36 1c 3e 97 2f ac 3d 63 7a 8c 3a 8c d7 f1 3d
       0.15255222 0.084075145 0.0010717626 0.118086904
000080 4d 43 d8 be 4a 25 54 3d 48 42 c0 3e 30 40 92 3e
       -0.42238846 0.051793374 0.3755057 0.28564596
000090 e5 61 ee be 1b d0 15 be 7d 25 38 3e f6 ee be 3d
       -0.46559063 -0.14630167 0.1798305 0.09322922
0000a0 b4 39 b1 be 39 3c 57 be 3f 31 53 bd 0d b5 0d 3e
       -0.34614336 -0.21019067 -0.051560637 0.13838597
0000b0 ef a8 06 be f7 4b 38 bd e9 01 5f bc a6 f2 59 bd
       -0.1315038 -0.04499432 -0.013611295 -0.053209923
0000c0 44 87 a0 bd a0 0f fe 3d 79 cc 07 be 5d e4 c1 bd
       -0.078383 0.12405324 -0.13261594 -0.09467385
0000d0 05 d2 a6 3e b3 86 10 3e 54 cf 9c 3e a8 db 8d 3e
       0.32582107 0.14113884 0.3062693 0.27706647
0000e0 eb cf 82 bd db ed a7 bc 27 ef 8c 3e 74 8a 2d bc
       -0.063873135 -0.02049916 0.2752621 -0.010592092
0000f0 43 5c b1 bd c0 5c 57 3d da 61 89 be c0 c7 52 be
       -0.08660176 0.052578688 -0.26832467 -0.20584011
000100 2b 8f 21 3e de e3 81 be 51 5d 46 3e d5 ec 47 be
       0.1577727 -0.2536916 0.19371535 -0.19523938
000110 1c 4b b9 bd 3d 07 57 3e 6f 5a e7 3a a2 37 2b 3e
       -0.09047529 0.20998855 0.0017650853 0.16720441
000120 44 1e 9b 3d 7b 87 9c 3d 23 bd 7d 3e af 7b 6b be
       0.07574132 0.07643028 0.24779181 -0.229964
000130 38 b9 4f 3e de 47 31 3e 60 59 c9 3d 4d e2 fc bd
       0.20285499 0.17312571 0.098315 -0.12347851
000140 77 79 9f 3d e9 28 b7 bd f7 fe 03 3e 56 b9 86 bd
       0.077868395 -0.0894335 0.1289023 -0.06578319
000150 32 a9 31 be a1 8e 2c 3e 99 f9 3e 3e 58 d1 23 3e
       -0.17349699 0.16851284 0.18649901 0.15997827
000160 54 8f 20 3e 79 e4 cd 3d 84 42 28 3e 9c cf 02 be
       0.15679675 0.10053343 0.16431624 -0.12774509
000170 6b ef c1 3d 0d 45 12 3e 6f 0f c2 3d 6c 51 02 be
       0.094694935 0.14284153 0.094756 -0.12726372
000180 cd 6e ba 3d 05 7f a1 3d fa 14 12 be ff d6 18 3e
       0.09103165 0.07885555 -0.14265814 0.14925765
000190 b6 2b 69 3e 9c b6 20 3d 40 34 f7 bd f9 81 0e 3e
       0.2277058 0.03923665 -0.12070513 0.13916768
0001a0 61 98 3a 3e 7e 6c 2b be a5 86 72 3e b6 0c 89 3e
       0.1822219 -0.16740605 0.23684175 0.2676751
0001b0 8d da f3 3d b4 b7 1c 3e 8b 0c 82 3e 44 bb 4d be
       0.1190692 0.15304452 0.25400195 -0.20090967
0001c0 8d da 15 be f5 de aa be a4 ce 6e be 7a 39 94 3e
       -0.14634152 -0.33373228 -0.23321015 0.289501
0001d0 5d 1c af 3e 1f bd 94 bd 9a 0a 39 bc d8 63 88 3e
       0.34201327 -0.072626345 -0.0112940315 0.26638675
0001e0 27 74 b6 be 63 ec 66 be 3f aa a5 bb 5a 39 75 be
       -0.35635492 -0.22551112 -0.0050556953 -0.23947659
0001f0 81 8b 3e be fb 27 38 be b2 9c b4 3d d7 99 2b bc
       -0.18607904 -0.17984001 0.0881895 -0.01047369
000200 10 0b 82 3d a8 88 93 3e 6f 82 04 bd 8b 29 df bc
       0.06349766 0.28815198 -0.032350954 -0.027241489
000210 59 51 b5 3e 53 3f 18 be 05 17 c9 bd 67 5d 00 bf
       0.35413626 -0.14867906 -0.09818844 -0.5014252
000220 04 80 a5 3c 79 ff e0 be c4 d6 6b be e0 4c ea bd
       0.020202644 -0.4394491 -0.23031145 -0.11440444
000230 3d ca f5 3b 0e 68 42 be c1 3d 7d bd 77 85 bd be
       0.0075009153 -0.18985006 -0.06182647 -0.37015888
000240 d6 d2 12 bd 77 36 21 be ba 86 db bd 0c 9f cd 3c
       -0.0358456 -0.15743433 -0.107190564 0.025100254
000250 e1 02 9c 3e c5 7a 20 3e d9 c2 c6 be d3 5a 44 be
       0.30470946 0.15671833 -0.38820532 -0.19175272
000260 6d 4e a5 3e 69 15 0f 3e 3a 14 34 3d 8c 59 dd bd
       0.32286397 0.13973011 0.043964602 -0.10808095
000270 ec d5 fb 3c 96 24 93 3e ae 25 8f 3e 55 8f 47 bd
       0.030741654 0.2873885 0.27958435 -0.048720676
000280 78 45 3e 3e 03 dd 41 be cb b0 4e be 59 89 cb 3d
       0.18581188 -0.18931966 -0.20184629 0.09938306
000290 3b 38 e0 bc 62 d4 57 bd 5d c2 81 bd d9 22 7c 3e
       -0.027370563 -0.05269278 -0.063359 0.24622668
0002a0 e8 ae 61 3e 5f 98 7f 3d 8f c7 81 3e a9 73 90 3e
       0.22039378 0.06240117 0.25347564 0.28213242
0002b0 eb 96 19 be fd eb 70 3e 8c 09 c6 3d e7 09 6d 3e
       -0.14998977 0.23527522 0.0966979 0.23148309
0002c0 47 c7 36 be 5f 28 1e 3e 93 c7 3a 3e 87 13 77 be
       -0.17849456 0.15445088 0.18240194 -0.24128543
0002d0 17 6c 8b be ae 6e 86 bd a7 d3 cf 3b 66 3c a2 3c
       -0.27230904 -0.06564079 0.0063423696 0.01980419
0002e0 8e de 28 be bb 6c e2 3d 03 2f be 3c 20 82 4f be
       -0.16491148 0.11055895 0.023215776 -0.20264482
0002f0 fb 2d 27 be 1d 72 45 bd af bb 00 3e 95 b0 40 3e
       -0.16326134 -0.04820453 0.12571596 0.1881736
000300 9d 9d 96 3e 0a c6 40 3e 1e a4 8e 3c a0 56 8a be
       0.29417124 0.18825546 0.017412242 -0.27019215
000310 fe 46 de 3d 7b c1 84 3d 26 65 63 3d 07 c8 35 3c
       0.108533844 0.06482216 0.055516385 0.0110950535
000320 f2 9b ce bd 11 b6 1b 3e 5a 2d 49 be 44 00 9f be
       -0.10088338 0.15206172 -0.19646206 -0.3105489
000330 8f 39 ad bd 5c a8 06 be c0 4a b5 bd 8e b5 0f be
       -0.08458244 -0.13150162 -0.08852148 -0.14034101
000340 f1 cf 99 bd 70 dd a6 be 12 6d 97 be ed 76 34 be
       -0.07510365 -0.32590818 -0.29575402 -0.17623492
000350 45 12 fe be 57 b5 6d be c5 09 60 bd 8a e3 33 3e
       -0.49623314 -0.23213707 -0.054696817 0.17567268
000360 ff f2 78 be bb 47 f9 3c c6 7f 6d 3e 63 79 ae 3e
       -0.24311446 0.030429712 0.23193273 0.34076986
000370 30 7f 15 be 50 e1 76 be 45 31 32 3e 6a 89 57 3d
       -0.145993 -0.24109387 0.17401607 0.052621283
000380 b1 8b 17 3e 08 f8 be 3d 16 21 c9 3d 52 e0 37 be
       0.14799382 0.09324652 0.09820764 -0.17956665
000390 cb 75 65 3e 57 a5 15 bd 8a 45 85 3e 6a c2 0f be
       0.22408216 -0.036534633 0.26029617 -0.14039007
0003a0 12 b6 d8 3c 67 e4 de 3d f3 cf a4 3d 17 7f f6 bd
       0.026454005 0.10883408 0.08047476 -0.12035959
0003b0 36 ef 51 3e d3 e1 16 3d 62 a5 90 3d 26 2a c4 3d
       0.20501408 0.036836457 0.07062794 0.09578352
0003c0 86 84 fd bd 7e 19 46 3e 21 a6 49 be 84 77 54 3e
       -0.123787925 0.19345662 -0.1969228 0.20748717
0003d0 32 0a 02 be 7a 2c 9b be e4 8d cb bd 00 5d 48 be
       -0.12699202 -0.3030737 -0.09939173 -0.19566727
0003e0 be 99 ae be d2 3a 00 be 58 41 eb 3c 09 63 6a be
       -0.3410167 -0.12522438 0.028717682 -0.22889341
0003f0 28 89 4a be a5 bf db bb 3d 3a 96 be 01 a7 3b 3e
       -0.19778883 -0.0067061954 -0.29341307 0.18325426

encoder.conv.0.bias f4 [32]
000000 33 37 f5 3d f2 29 70 be 5d e1 33 3b 94 ba ba ba
       0.11973419 -0.23453501 0.002744756 -0.0014246278
000010 1e 3b 0d 3e 2f d7 eb 3d 7d d5 64 be 5a 85 1b bb
       0.13792083 0.115156524 -0.22347064 -0.0023730607
000020 04 97 c7 3d 23 42 25 ba d0 2e 09 be 75 39 72 3e
       0.09745601 -0.00063041056 -0.13396764 0.2365473
000030 83 38 82 bd 2b ec 72 ba b8 65 76 be d3 de 24 3e
       -0.06358435 -0.0009266759 -0.2406224 0.16100626
000040 db cb 78 3e 59 b2 03 3d 1b 36 35 3e 2d 36 5d be
       0.24296515 0.032152507 0.17696421 -0.21602698
000050 cf 62 13 bd de 88 26 3d 38 b7 13 3d f7 c2 75 ba
       -0.035982903 0.04065787 0.036063403 -0.00093750603
000060 40 f4 ab 3d 02 67 e7 3d e9 7f 37 3e 8c 12 e3 3d
       0.08396196 0.11298944 0.17919888 0.11087522
000070 a6 21 b1 b9 52 cb 59 ba 25 d0 2d 3e 50 fe 6d be
       -0.0003378514 -0.000830819 0.16973932 -0.23241544

encoder.conv.2.weight f4 [64, 32, 4, 4]
000000 92 c6 06 bc 4f d0 a8 bc af 71 b4 bc a1 77 bf 3c
       -0.008226054 -0.020607142 -0.022026865 0.023372473
000010 12 87 2f 3d 3f 48 1e 3c ce a2 20 3d 7c d1 d5 3c
       0.042853422 0.0096607795 0.039217763 0.026100866
000020 8e f6 61 3a b8 b7 73 3b 40 0c db 3c 80 4d 16 3d
       0.00086198084 0.0037188362 0.02673924 0.036695004
000030 6b 10 d8 bc 77 04 12 bd 71 e7 bd bb d3 51 03 bd
       -0.026375016 -0.03564879 -0.005795412 -0.032060456
000040 47 b7 d0 bc 1d 07 ae bc 33 53 4f bd 3b 2c 8e bd
       -0.025478018 -0.021243626 -0.050616454 -0.0694203
000050 0f b1 4e bd 69 ce ee bc 81 ad 9f bd ea bc af bc
       -0.050461825 -0.029151158 -0.07796765 -0.021452386
000060 e5 e3 b4 bc 33 af 66 bd 21 80 51 bd 36 a6 cf bc
       -0.022081325 -0.056319427 -0.051147584 -0.02534781
000070 4e fa 54 bd 80 7d 3f bd 8d 7b 3a bd 16 67 0e bc
       -0.05199652 -0.046750546 -0.045527983 -0.00869157
000080 02 c0 bc 3c df 72 fd bc e6 c4 4f bc 33 ec e6 bb
       0.023040775 -0.030938564 -0.012681222 -0.0070472
000090 e5 59 f6 3b 77 f6 c4 3c b3 75 e8 bb 76 14 6f 3d
       0.0075180405 0.024043305 -0.007094109 0.058369122
0000a0 e5 e7 0e bd 96 76 fd bb 31 7d f1 3c b3 d0 06 3d
       -0.03488912 -0.007735084 0.029478641 0.032913875
0000b0 17 f6 39 bd 35 44 e7 bb 64 27 04 3d 71 54 ff bc
       -0.045400705 -0.0070576915 0.03226413 -0.031168194
0000c0 52 e9 22 3d fc 35 a0 bc 0b 8d 9d bb fc 4c cd 3b
       0.039773293 -0.019556992 -0.0048080734 0.006265281
0000d0 10 59 c8 bb 31 dc bd 39 8d f9 85 3c 4a a9 8c 3d
       -0.0061141327 0.00036212945 0.016354347 0.06868227
0000e0 28 c0 46 bc ea 78 2e 3a 78 b2 ae 3c ea a0 8d 3c
       -0.012130775 0.0006655591 0.021325335 0.017288644
0000f0 89 83 2f bc 2e 24 6c bc a3 73 44 3d 78 7a 8e bc
       -0.010712513 -0.014412923 0.047961842 -0.017392382
000100 c5 5f 00 bd 71 80 46 bc 2d 74 fa 3b d5 cc 50 bd
       -0.031341333 -0.012115584 0.0076432438 -0.050976593
000110 ce bc 23 bd 25 e3 81 bd cb 5e 8c bd 78 1b fa bc
       -0.03997498 -0.063421525 -0.06854018 -0.030530676
000120 0d d8 bc bc 2f c3 8c 3c 01 d5 4b bd 80 b2 ca bb
       -0.02305224 0.017182915 -0.049763683 -0.0061858296
000130 da 12 6e bc 04 9f 4e bd 59 e4 a4 bc 71 2a 65 bd
       -0.014530862 -0.050444618 -0.020128416 -0.05594868
000140 8a 8a 13 bb 6c b3 ae 3c cd 0c b1 3c 9b 38 80 3c
       -0.0022512996 0.02132579 0.02161255 0.015651992
000150 ec 09 6b bd 7a b4 67 bc fe d7 4a bd be ab 60 3c
       -0.05738251 -0.01414215 -0.049522392 0.0137128215
000160 a8 f7 71 bd f8 08 14 bb 4d 50 65 3c 4d 06 8a bb
       -0.059074074 -0.0022588354 0.013996196 -0.004212177
000170 97 41 df 3b 02 e5 86 bd c2 92 35 bd 3b 5f 80 bc
       0.006813239 -0.065866485 -0.044329412 -0.01567041
000180 b4 ea c9 bc 0f 52 17 3c 63 d6 34 bd df f2 98 bc
       -0.024648048 0.009235873 -0.044149768 -0.018670497
000190 cf d6 ff bb 91 fd 8f bc 3a 66 a0 bc 64 ee 1a bc
       -0.0078075896 -0.017576965 -0.019579995 -0.009456251
0001a0 8f 15 8b bd 8d ef e7 bc af bd 80 bd 2f 1d 91 bd
       -0.06791221 -0.028312469 -0.06286179 -0.070856445
0001b0 0d 46 8a bd 0d bd 1b 3c d4 a6 9b bd 8a 42 79 bd
       -0.067516424 0.009505522 -0.07600179 -0.060854472
0001c0 b3 fd 44 bd 0d 2e 00 3d ed 61 75 bc 30 99 28 bd
       -0.04809351 0.031293917 -0.014976961 -0.041161716
0001d0 08 df ec 3a e5 93 a9 3c 18 5c 7f bc ad 95 0d bd
       0.001807184 0.020700404 -0.015585922 -0.03456657
0001e0 1b 90 2c bd 6b 39 ca 3c 81 e5 29 bc 9d d8 bb bc
       -0.042129617 0.024685582 -0.010369659 -0.022930438
0001f0 77 c7 89 bd 00 af 36 3b bc 75 7f bc 56 c1 72 bd
       -0.06727498 0.0027875304 -0.015592035 -0.05926641
000200 cc a4 f6 3b 2c 1d de 3c 3c c0 b2 3c e9 59 05 bb
       0.0075269695 0.02711352 0.02182018 -0.002034778
000210 4f c2 ae bc ca c8 2e 3d 46 3f ee bb be e8 ee bc
       -0.021332888 0.042671956 -0.0072707264 -0.029163714
000220 da 6f 14 3d 7b 45 5b 3d 10 56 b3 bc 33 4e 7f bc
       0.036239482 0.05353306 -0.021891624 -0.015582609
000230 b9 c4 82 bb 14 93 f2 3c 69 be e3 bb d8 1c 61 bc
       -0.0039907363 0.029611148 -0.006950189 -0.013739787
000240 bd 70 14 3d 48 ab e8 3b 3c f3 66 3c 44 83 bb 3b
       0.036240328 0.0071004964 0.0140960775 0.005722435
000250 d7 81 9f bb 8f b2 bb 3c 69 5c 11 3c 94 df a9 bc
       -0.004867773 0.022912292 0.00887213 -0.020736493
000260 ba 4f 82 3d 24 e9 24 3d f2 6c 9b bc 2d 6b 47 bd
       0.06362863 0.040261403 -0.018972848 -0.048686195
000270 dd eb 1c 3d de 28 20 bc 71 07 96 3c 3c 4b 57 bc
       0.038310874 -0.0097753685 0.018314095 -0.013140496
000280 f4 a1 52 bd 92 e4 9a bc 9a 8b 52 bd 86 72 d0 bc
       -0.05142398 -0.018907819 -0.051402666 -0.025445234
000290 f6 1e 0b 3c c2 c1 f6 bc 55 b8 56 bd 3f 81 cf 3b
       0.008491268 -0.030121688 -0.052421886 0.006332546
0002a0 60 d0 4f bd 75 26 8d bd f5 4a 13 3c b0 26 4c bd
       -0.05073583 -0.06892101 0.008990039 -0.049841583
0002b0 a3 2d 6b bd b2 8e 0d 3c 12 fb 61 bd fe b0 e5 b9
       -0.05741657 0.008639978 -0.05517108 -0.00043810153
0002c0 84 43 a3 3c 3d 87 9d bc 80 af cb 3c f7 af 7f 3a
       0.019929655 -0.019229526 0.024863958 0.0009753699
0002d0 c0 fb 9c 3c 93 27 06 bd 07 79 ba 3c 3b 99 5d ba
       0.019163013 -0.032752585 0.022762788 -0.0008453314
0002e0 a5 47 0a 3d 9e 6c 3a 3d d1 a6 0b bd 6b 33 4c ba
       0.03375973 0.04551374 -0.034094635 -0.00077896443
0002f0 f2 aa 5b bd 34 0d f3 3c 5a d5 b1 bc 44 1e cb bb
       -0.053629823 0.029669382 -0.02170818 -0.0061986763
000300 fa fe a0 bc fc 4e 0c bd fd 27 16 3d f3 d6 da 3c
       -0.019652832 -0.034255013 0.03665923 0.026713824
000310 02 2a 38 bd 2d 24 c0 bc c3 4b c3 3b 99 e9 f8 bb
       -0.044961937 -0.02345475 0.0059599592 -0.0075962064
000320 c2 d3 04 bd 13 c1 67 bc d6 e7 4b bd fc 62 fa bc
       -0.03242851 -0.014145154 -0.049781643 -0.030564778
000330 32 ad 21 bd 61 d5 98 bd 87 b4 17 bd 28 58 9f bc
       -0.039471813 -0.07462574 -0.0370374 -0.019451216
000340 61 dd f2 ba 13 b9 3c bd 5b 81 9f bc 5a 04 44 bd
       -0.0018529111 -0.046074938 -0.019470861 -0.047855712
000350 23 a9 02 bd fe 7b 97 bc 8e 71 c1 bc 78 9e e5 bc
       -0.031899583 -0.018491741 -0.023613717 -0.028029665
000360 52 ab 65 bd ca a2 43 bd ba 17 03 bd e1 f6 33 bd
       -0.056071587 -0.04776267 -0.03200505 -0.043936614
000370 5a d4 0f bd 9e 20 d2 3c 02 42 d3 bc 74 54 d1 bc
       -0.035114624 0.025650319 -0.02578831 -0.025552966
000380 85 62 d3 3b 5d 9d e9 bc 75 42 cc 3a 68 ff b0 bb
       0.0064509534 -0.02851742 0.0015583771 -0.0054015405
000390 c9 8e e6 bc 4a 5e 01 bd 21 ff 0e bd f1 6e 36 bd
       -0.028144257 -0.03158406 -0.03491128 -0.044539396
0003a0 7b 07 7e bd c1 52 89 bc 51 b1 83 bd 05 d6 89 bd
       -0.062018853 -0.016763093 -0.06430305 -0.06730274
0003b0 9c 4e 8a ba 1a 05 e8 bc 29 15 96 bd 53 5b 74 bd
       -0.0010551992 -0.028322745 -0.07328255 -0.059657406
0003c0 ef 29 79 3b 5a ca db 3c a6 46 0c 3d e4 23 16 3c
       0.003801938 0.026829887 0.034247063 0.00916383
0003d0 d3 d2 35 3d ed 04 97 3c 20 8a 1c 3d 3e 6a 68 3b
       0.04439051 0.018434966 0.038217664 0.0035463716
0003e0 4a 69 c1 bc ab d3 c3 bc a8 6a 4e 3d 7b 1c cf bc
       -0.023609776 -0.023904642 0.050394684 -0.025282135
0003f0 08 9d e2 bc d9 93 c6 bc 48 42 65 3c 19 ec 16 bd
       -0.027662769 -0.024240421 0.013992853 -0.036846254

encoder.conv.2.bias f4 [64]
000000 5e 70 1d 3d 40 5d 10 bd d5 88 2d bd 7d d2 75 3c
       0.03843724 -0.03524518 -0.04236682 0.015003798
000010 cb af 2b bd 6d af 58 3d 94 22 28 3d e8 c2 bb ba
       -0.041915696 0.052901674 0.0410486 -0.0014325054
000020 82 59 9e 3c ee 2e 6f 3d 40 49 ba 3c 35 26 97 bc
       0.01932979 0.058394365 0.022740006 -0.018450836
000030 91 32 53 bc 71 4f 64 3c f3 08 bd 3b ed 49 d9 3c
       -0.012890474 0.013934956 0.005768889 0.026524508
000040 96 7b 67 bc 3a 25 2a 3d e7 0f cb 3b a8 45 d1 bc
       -0.014128586 0.04153941 0.006196964 -0.02554591
000050 26 6b 77 3d e7 a5 58 3c 81 a5 2c 3d 5f 83 3e bd
       0.06040492 0.013223148 0.042150024 -0.046512004
000060 5d 15 cf 3c 78 c5 e6 bc 34 c5 40 bd b4 8d 91 3b
       0.025278741 -0.028170332 -0.047063068 0.004441941
000070 a7 84 7c 3b 2a 74 ec bc 88 67 a0 3d 81 f4 b4 bc
       0.0038531215 -0.028863985 0.07832247 -0.022089245
000080 a7 f5 b7 3d 34 1c 4c 3d a8 a4 2d 3b 65 07 84 3d
       0.08982401 0.049831584 0.0026495848 0.06446723
000090 4e 3c b6 3c 21 f1 00 bd 45 f1 61 bc b0 a8 bb bc
       0.022245552 -0.03147996 -0.013790433 -0.022907585
0000a0 e8 79 4a 3d 0c 0c 38 3d 41 a5 4a 3c 75 bd 1d bc
       0.049432665 0.044933364 0.012368501 -0.00962769
0000b0 53 4e c2 3c e6 50 26 bd 55 fb 64 3d e7 8b 46 3d
       0.023718989 -0.040604495 0.05590375 0.048473265
0000c0 20 a1 39 bd b9 74 09 3d 01 c7 5f 3d fd 55 14 3c
       -0.045319676 0.03355858 0.054633144 0.009053704
0000d0 af e1 68 3d 9b 11 54 3d 72 4f 3d 3d 8e 67 89 bc
       0.056855854 0.051774602 0.046218343 -0.016773012
0000e0 3d 7b 1d bd b7 61 a9 3c 9c 8f b2 bc e5 2f 3d 3c
       -0.038447607 0.020676477 -0.021796994 0.0115470635
0000f0 3d e4 47 3d c9 a4 2c 3d 8f a9 81 3d e8 99 11 3d
       0.04880165 0.04214934 0.06331169 0.035547167

encoder.conv.4.weight f4 [16, 64, 3, 3]
000000 27 2c 9c bc 2a b5 e4 bc 1d 5d 89 3d 4d 32 dc bc
       -0.019064022 -0.027918417 0.06707213 -0.026879454
000010 91 c8 8c bc 9c 1b 3d bc e1 7b eb bb a7 54 0b bd
       -0.017185481 -0.011542227 -0.0071863984 -0.034016278
000020 63 c4 28 3d 32 90 6c bb 57 1e ed 3c 40 2d 0b bc
       0.041202914 -0.003609669 0.028945131 -0.008494675
000030 6d 86 8b bb b0 3f 92 3c ce 86 17 bc 85 d5 41 3d
       -0.004257968 0.017852634 -0.009248449 0.04732277
000040 63 68 cf 3c 92 b2 82 bb 98 20 00 3d 8e 41 06 3d
       0.02531833 -0.0039885724 0.031281084 0.03277736
000050 c0 8e fe bc e5 c4 43 bd 4b ba 95 39 3d 68 36 bd
       -0.031073928 -0.047795195 0.00028558294 -0.044533003
000060 3b 90 90 3c c8 dd 15 bc 03 8f 2d bd 20 b0 de 3c
       0.0176469 -0.009147115 -0.042372715 0.027183592
000070 4f bc 2a bd 07 ac 07 3c b2 8e 32 3e 1e ea fa 3d
       -0.04168349 0.008280761 0.17437246 0.122516856
000080 92 e3 ed 3c 1d 18 dc 3d 6f 3f ca bd ca 55 d9 3c
       0.029039178 0.10746787 -0.0987538 0.026530165
000090 85 59 9f 3c 60 90 e4 bb 17 d6 39 3c 95 f2 82 bb
       0.019451866 -0.0069752187 0.011342547 -0.003996203
0000a0 e7 60 ff 3c 10 7e d2 3c 12 1e 25 3b ac bd b4 b9
       0.031174136 0.025694877 0.0025194925 -0.00034473592
0000b0 17 1b e9 b9 61 db 8c ba ee f3 5a 3d 7a 5f fa 3b
       -0.00044461407 -0.0010746532 0.053455286 0.007640776
0000c0 35 9c 98 bd 34 b8 81 be 48 bf 2d 3d 05 b0 81 bd
       -0.07451669 -0.25335848 0.04241875 -0.06332401
0000d0 a2 e0 16 bc de 23 0c bc 8c 2f cd 3c 17 4b aa 3c
       -0.00920883 -0.008553473 0.025047086 0.020787759
0000e0 20 d9 15 bd 42 22 f2 bd ae f1 45 be 15 59 60 3d
       -0.03658402 -0.118229404 -0.19330475 0.054772455
0000f0 21 b9 73 bd 6c 64 36 bd 00 b6 1f 3d 8e 00 04 bd
       -0.059502725 -0.044529364 0.038991928 -0.03222709
000100 4e dd 02 bd 6a 5b 88 3b a1 da 02 bd d1 ab 30 3c
       -0.031949334 0.004161288 -0.031946782 0.010783152
000110 1d 34 21 3c 64 cc 0b bd 28 95 b9 bc 0e b6 05 3c
       0.009839085 -0.03413047 -0.022654131 0.008161081
000120 6e dd 65 3c dc 52 f7 bc e4 8d 69 bc 4d 11 b2 bd
       0.014029844 -0.030190878 -0.014255021 -0.08694706
000130 58 5e 8a 3d c7 7d 9e bc c1 23 c7 3d d1 94 9d 3c
       0.06756276 -0.019347085 0.097236164 0.019236
000140 55 2e 9b bc 68 25 ef 3c ca de de 3b e9 f5 cb 3b
       -0.018942991 0.029192641 0.006801461 0.006224383
000150 4a 98 b5 bd 8e d2 26 bd a8 9a 40 3c 61 27 cd bd
       -0.088669375 -0.040728144 0.011755623 -0.100172766
000160 15 42 52 bd 89 d6 50 3d 81 b7 1e bd 5d 33 f9 bb
       -0.051332552 0.050985847 -0.03874922 -0.007605
000170 1c 4b 0d bc e7 27 fa 3b a5 15 04 bc 09 0c 4e 3d
       -0.0086238645 0.0076341513 -0.008061801 0.050304446
000180 85 cd 8b bd 5c 46 0e 3d 07 41 2e bd 99 50 40 bd
       -0.06826309 0.03473507 -0.042542484 -0.046951864
000190 51 3c ee bc a3 e7 81 bb 6b c4 36 bd e7 4c 1a be
       -0.029081495 -0.003964381 -0.044620913 -0.15068398
0001a0 9c 6a e9 bc 81 66 e0 3c 61 03 56 bd f5 7c 0f 3c
       -0.028493218 0.027392628 -0.052249316 0.008757819
0001b0 fb 73 05 bc 20 e7 1b 3c a2 02 df bb b2 bc 8c 3d
       -0.008145328 0.009515554 -0.006805734 0.06871928
0001c0 ad bd b3 bc 12 0e 81 3c c0 67 ca 3a d3 88 bd 3c
       -0.02194103 0.01575378 0.0015442297 0.023136532
0001d0 0b 79 d5 b9 42 07 02 3d b8 4f ab 3d 0b dd 3f bd
       -0.0004071671 0.031745203 0.083648145 -0.046841662
0001e0 25 4e f6 bd 49 ac 6c bd e6 fc c1 bc 3f 2a 90 3d
       -0.12026624 -0.05778149 -0.023680162 0.07039308
0001f0 f1 65 9a 3c e8 7e 8e bc f8 6b 0b bc 95 3a 36 bd
       0.018847438 -0.017394498 -0.0085096285 -0.044489462
000200 a4 35 c2 bc be 0e f3 bc 24 be 18 be 34 a3 18 3d
       -0.023707218 -0.029670116 -0.14916283 0.037265018
000210 94 3c b8 bd 30 81 70 3d 19 30 7e 3a 23 5b 26 bd
       -0.08995929 0.058716953 0.0009696498 -0.04061426
000220 e6 86 08 bd 9f f4 bc ba c6 e9 e4 3c ba ca 91 bc
       -0.033331774 -0.0014416164 0.027943503 -0.017796863
000230 3c cf 98 bc 18 d5 6d 3d de a7 4d 3b f6 f8 84 bc
       -0.018653505 0.05806455 0.0031380574 -0.016231995
000240 de a8 96 bc 6e a8 06 bc 6d cc 16 3d 02 63 84 bd
       -0.018391069 -0.008218868 0.03681605 -0.06464197
000250 5a 73 99 bd a6 3b 07 3d df 99 77 bd 01 db 8b bd
       -0.07492705 0.03301587 -0.060449477 -0.06828881
000260 97 e2 80 bb 63 6a 69 3d 48 39 db 3c 83 cf 2f bd
       -0.0039332616 0.056986224 0.026760712 -0.042922508
000270 74 9e 83 3d df 37 c0 bd 8b 42 aa 3c 07 9d 96 bd
       0.06426707 -0.093856566 0.020783683 -0.07354169
000280 97 22 24 3d a8 2c 21 3c a4 92 c9 bc 88 60 9c 3c
       0.04007205 0.009837307 -0.024606057 0.019088998
000290 d3 12 0d bb 5c b7 c6 3c 85 9b f5 3c 8d cf 22 3d
       -0.0021526113 0.024257354 0.029981384 0.039748717
0002a0 88 0f 1b 3c b5 02 c6 bc ac f3 0c 3d f9 43 a3 bb
       0.009464152 -0.024171213 0.03441207 -0.004982468
0002b0 2a e7 e0 3c 1c 9b 1f 3d 61 12 de 3c 65 5c d3 3c
       0.027453978 0.038966283 0.027108373 0.025800893
0002c0 f2 bd 85 3c 27 3d 4c 3d 03 e1 47 3d 97 0f 8d b9
       0.016325925 0.049863007 0.048798572 -0.0002690523
0002d0 14 06 bc 3c 8e b5 33 bc 1a fe a0 bc 67 a7 cf 3d
       0.022952117 -0.010968579 -0.019652415 0.10139351
0002e0 e7 cd ab bd 34 ef 2f 3c 58 6d 08 be 90 a1 58 bc
       -0.08388882 0.010738183 -0.13322961 -0.013222113
0002f0 fb 81 22 bc 90 5a c5 3c 1c 35 eb 3c 1b b8 49 bd
       -0.009918685 0.024091035 0.028711848 -0.049247842
000300 40 72 62 be 97 c9 62 bd 08 d9 21 bd 5f 19 d8 3d
       -0.22113895 -0.055368032 -0.039513618 0.10551714
000310 47 52 2b 3c 28 8e 47 bd 68 ef 0e 3d 9e 4a 19 3c
       0.010456628 -0.048719555 0.034896284 0.009356169
000320 e6 2f 90 bc 50 9b 9f 3d c1 1a e9 bd 98 8c 0c 3d
       -0.017600965 0.077932954 -0.11382056 0.03431377
000330 0c d8 c3 3d 2e d0 dc bd f3 14 64 bc 52 97 ad 3c
       0.09562692 -0.107818946 -0.01392101 0.02119032
000340 fe 37 49 bc ed b4 e9 bc 36 7d 98 bc 38 2e 15 bc
       -0.012281416 -0.028528655 -0.018614393 -0.009105258
000350 5d 32 d2 bc 1c 51 af bc 45 aa 4c 3c 20 e6 07 bd
       -0.02565878 -0.02140098 0.012491767 -0.03317845
000360 a3 da f4 bb cb 60 33 3c b7 b4 9f 3c b8 59 07 bd
       -0.0074723526 0.01094837 0.019495351 -0.033044547
000370 a9 f5 32 bd a2 48 83 bc d6 95 a9 bc 83 60 0a 3c
       -0.04369131 -0.016025845 -0.02070133 0.008445862
000380 b3 4d 8e bc ff 9a 0d bd 98 63 3c 3c 24 72 ed 3b
       -0.017371034 -0.034571644 0.011498354 0.0072462726
000390 00 ca 03 be cc 6b b4 3c df bf 76 bd 9b 40 40 3e
       -0.12870026 0.022024058 -0.060241576 0.18774645
0003a0 89 e3 1d 3a 08 26 47 bd 01 3b 27 bc f9 b6 92 3c
       0.000602298 -0.048620254 -0.010206939 0.017909514
0003b0 73 35 10 bd da ac 95 bd e4 ed cb 3c db a7 38 3c
       -0.035207223 -0.073083594 0.024893709 0.011270489
0003c0 11 2b 9b 3c 24 34 ad 3d c4 fe b6 bc ab d8 8a 3c
       0.018941434 0.08457211 -0.022338279 0.016949018
0003d0 56 0f 80 bb 18 9f 3c 3c d8 bd a2 ba ff 3a 0e bd
       -0.003908078 0.01151254 -0.0012416197 -0.03472423
0003e0 f2 c9 5a bd dc 67 8b bb f5 b2 fa bc 64 49 17 3d
       -0.053415246 -0.0042543244 -0.030602911 0.036935225
0003f0 bf ff b6 bc fe 73 cd bc 32 c3 fe 3c fd 80 08 bd
       -0.022338746 -0.025079723 0.031098936 -0.033326138

encoder.conv.4.bias f4 [16]
000000 8a 8e 62 3a 33 51 87 3c 34 65 4d bc 71 34 07 3d
       0.0008642456 0.016518211 -0.012536336 0.033008996
000010 43 4b 0b 3d 46 48 8f bd 2e 9e 35 bd 54 62 2f 3c
       0.034007322 -0.06996207 -0.044340305 0.010704596
000020 fb e1 5a bd 8a cf 63 bd 02 6d 52 3d 7b 25 1d bd
       -0.053438168 -0.055617847 0.05137349 -0.038365822
000030 6d a0 d2 3c 9e 1b 0c 3c 38 6e 4e 3d 0a 92 28 3c
       0.025711263 0.008551506 0.05039808 0.010288725

vq_layer.embedding.weight f4 [64, 16]
000000 2f f7 03 3f a1 9e 22 3e e3 90 85 bf 8b 6e 15 3e
       0.5154905 0.15880825 -1.0434841 0.1459295
000010 b6 59 2e 3f 67 49 2c be 3c 2e 0a 3e 6c a1 c0 bc
       0.6810564 -0.16824876 0.134942 -0.023514472
000020 5a 38 aa be 78 3d 50 bf d3 3d b3 be 08 45 b8 bd
       -0.33246118 -0.81343794 -0.35008106 -0.08997542
000030 f3 f9 d2 3e 5f e5 0e bd df 4d 45 3e ef d8 3c 3f
       0.4120632 -0.034886714 0.19267987 0.73768514
000040 91 0e dd be 81 ee 07 3f 62 2d 65 bf 58 6e 2c 3f
       -0.43175176 0.53098303 -0.89522374 0.6735587
000050 23 51 68 3f f0 9d 36 bf 02 94 37 bf ad 74 d6 3e
       0.90748805 -0.71334743 -0.71710217 0.41885892
000060 0a 17 52 bf 99 a5 83 bf e6 d4 0e 3f b7 6e f4 be
       -0.82066405 -1.0284911 0.5579361 -0.4774072
000070 0b 66 c5 be 3e 12 e1 3e eb 31 70 3f fe 5a 3b 3f
       -0.38554415 0.4395923 0.9382617 0.7318572
000080 7e f8 a6 3e 2f 54 6f bd f6 10 c3 be 90 a5 53 bc
       0.3261146 -0.058429893 -0.38098878 -0.012917891
000090 b0 da 33 3e 4c c7 aa bc 87 66 25 3e fd 01 37 be
       0.17563891 -0.020846985 0.16152392 -0.17871852
0000a0 de 25 4a bd 99 0f 86 be e0 c2 4f be 90 32 0d 3d
       -0.04935252 -0.26183775 -0.20289183 0.03447205
0000b0 94 68 c9 3e b0 49 16 be 02 29 16 bc 85 93 5f 3e
       0.393376 -0.14676547 -0.00916505 0.21833618
0000c0 fc b9 2a 3f e1 af 91 bf 00 50 83 3f 0c e4 78 bf
       0.6669004 -1.1381799 1.0258789 -0.9722297
0000d0 b4 9f a0 bf 57 df 89 3f bf 9e 84 3f e3 03 8f bf
       -1.2548738 1.0771283 1.0360945 -1.1173061
0000e0 1f 2e 94 3f 71 a4 a4 3f 6f 89 72 bf 01 cd 7f 3f
       1.1576575 1.2862684 -0.9474096 0.99922186
0000f0 e2 f0 61 3f 57 c4 5c bf 2f bd 88 bf c9 8b 85 bf
       0.88258183 -0.8623709 -1.0682734 -1.0433284
000100 3e a6 68 bf 7f ed ac be df 1e 91 3f 7f b7 c4 3e
       -0.90878665 -0.33774945 1.1337546 0.38421246
000110 b9 e3 31 bf a5 ea 9d be 93 9a 1f bf ce 2b 96 be
       -0.694881 -0.30843082 -0.62345237 -0.29330295
000120 16 40 02 be 32 7f 39 3f 40 cc 6e 3f 1f e7 aa 3d
       -0.1271976 0.7245971 0.9328041 0.08344864
000130 fe f6 86 be f4 c1 89 3d 47 e5 1a 3f d8 56 79 bf
       -0.26360315 0.06726447 0.605061 -0.9739814
000140 72 0d 7a 3f 58 b8 9d bd d9 b3 7e bf 51 83 65 be
       0.97676766 -0.077011764 -0.99493176 -0.22413374
000150 fb d3 ed 3e 93 b2 46 3e 46 02 1d 3f a3 ad 9a be
       0.4645079 0.19404058 0.61331594 -0.302106
000160 5e a6 e8 3c 11 73 1b bf b7 7c 54 bf d4 dd 1e 3e
       0.028399643 -0.6072245 -0.830028 0.15514308
000170 06 2a 4d 3f d0 c4 aa be 10 9e 92 be aa 55 25 3f
       0.8014225 -0.3335328 -0.28636217 0.6458384
000180 38 ee 2a bd 60 3e 70 3e a8 d2 19 bf fe e6 b2 3e
       -0.04173109 0.23461294 -0.6008706 0.34941858
000190 0d 8b 03 3f e5 d1 ca be d4 9f 8e be e1 7a fb 3d
       0.5138405 -0.39613262 -0.27856314 0.12279297
0001a0 6e fc e2 be c8 ce 1a bf 1f c6 56 3e 19 13 78 be
       -0.44333214 -0.60471773 0.20974015 -0.24226035
0001b0 e3 3e 34 3d e5 52 0d 3e 9d a9 e8 3e 20 e4 e4 3e
       0.044005286 0.13801153 0.45441905 0.44705296
0001c0 47 86 21 3f b4 68 5d 3c da 03 53 bf 66 ae 25 bd
       0.63095516 0.013513733 -0.8242775 -0.040449522
0001d0 42 74 e6 3e 5b 2a f0 3b b6 b9 a4 3e 85 ab 2b be
       0.45010573 0.007329268 0.32172936 -0.16764648
0001e0 bf be e8 bd de 24 12 bf d5 45 f5 be ad 57 fb 3c
       -0.11364507 -0.57087505 -0.4790484 0.030681456
0001f0 3f e2 0d 3f 93 d3 37 be c7 62 55 bd f4 d7 0c 3f
       0.5542335 -0.17951803 -0.052096155 0.5501702
000200 26 26 68 be 96 7f 18 bf fd 15 76 3f f8 94 27 be
       -0.22670802 -0.5956968 0.961273 -0.16365421
000210 dc 42 52 bf 11 31 6e 3e b5 72 38 3d ff 32 10 bf
       -0.8213327 0.23260905 0.04503127 -0.56327814
000220 b5 c9 bd 3e 30 72 58 3f 59 04 17 3e 70 dd d5 3e
       0.37067953 0.84549236 0.14747752 0.41770506
000230 4b 92 58 3e a6 5a 90 be 0b a5 9b bd 6f bc 65 bf
       0.21149556 -0.2819416 -0.07599839 -0.8974065
000240 e3 9e e0 3e e3 73 8c be c2 24 f5 bd a5 51 74 be
       0.4387122 -0.27432165 -0.119699016 -0.2385927
000250 1d 99 d9 bd 95 5d 67 3e b5 46 c1 3e 7b 5a c0 be
       -0.10624907 0.22594292 0.37749258 -0.3756903
000260 34 d4 5f 3e 9d f4 12 3d 7e 20 c9 be 46 9e 72 3e
       0.21858293 0.035877813 -0.39282602 0.23693189
000270 c8 25 05 3f e0 09 9f be 40 80 87 be 9d 2a 8b bc
       0.52010775 -0.31062222 -0.26465034 -0.016988093
000280 17 45 60 bf c9 c6 10 bf 64 ad b9 3f 80 0e 44 3e
       -0.8760542 -0.5655332 1.450604 0.19146156
000290 99 8f 82 bf a4 67 b0 bd 50 22 f0 be c4 4c f0 be
       -1.0200073 -0.08613518 -0.46901178 -0.46933568
0002a0 b9 60 0d 3e a3 46 8a 3f 10 e2 4f 3f 74 7a 90 3e
       0.13806428 1.0802807 0.8120432 0.28218424
0002b0 f0 c4 36 be 3c c1 6c bd df d1 c5 3e 6d b0 a1 bf
       -0.17848563 -0.05780147 0.3863668 -1.2631966
0002c0 ce 48 90 3f aa ee dc be 1b eb fa be 69 e6 27 bf
       1.1272218 -0.43150836 -0.49007496 -0.65585953
0002d0 86 1b 7c bd 9f 91 20 3f 07 4e 7b 3f 68 13 17 bf
       -0.061549686 0.627222 0.98165935 -0.59013987
0002e0 c7 eb 0c 3f a3 96 35 bd f3 4e 8f bf bd 29 ef 3e
       0.5504727 -0.04433311 -1.1195968 0.4671153
0002f0 23 ab 7a 3f 23 8c 1b bf bc e1 4e bf e5 2a 63 3e
       0.97917384 -0.60760707 -0.80813193 0.22184332
000300 d0 c5 3b 3f b6 70 ab bf c7 4a af 3f 2f 1a 98 bf
       0.7334871 -1.3393772 1.3694695 -1.1882991
000310 4f 0f cd bf ee 6e a8 3f 0e b2 9e 3f 5b 67 a3 bf
       -1.6020297 1.3158853 1.2398088 -1.2765917
000320 d7 36 bb 3f ed 78 d8 3f 41 25 8e bf 3a c9 93 3f
       1.4626111 1.6911904 -1.1105119 1.1545784
000330 4b 0a 7c 3f b0 1f 7e bf cb 45 b4 bf e1 c1 a8 bf
       0.98453206 -0.992671 -1.4083799 -1.3184167
000340 7b ee f3 be 74 b4 67 bf 9b ed d6 3f 1b 8e a1 be
       -0.47642884 -0.90509725 1.6791261 -0.3155373
000350 9f a5 b1 bf a8 d5 dd 3e 86 0f 73 3d 8f 59 46 bf
       -1.3878669 0.4332707 0.059340976 -0.77480406
000360 69 df 2c 3f 94 ac be 3f 5a be 82 3e 0c 55 22 3f
       0.67528397 1.4896417 0.25535852 0.6341102
000370 2e 50 18 3e 82 1f c1 be a7 66 73 be 1a ca bd bf
       0.14874336 -0.3771935 -0.23769628 -1.4827302
000380 71 43 a8 bd 94 6e 95 3d 21 c9 c2 bd 16 98 bc 3d
       -0.082159884 0.07296482 -0.095110185 0.092086956
000390 b2 c5 a8 3d 08 2a d9 bd b7 b2 b9 bd 98 a4 94 3d
       0.082408324 -0.1060372 -0.0906729 0.07257956
0003a0 73 79 c7 bd f2 45 bc bd 3f 19 d4 3d 54 71 ae bd
       -0.097399615 -0.091930285 0.10356378 -0.085177094
0003b0 9d 07 76 bd 5d 84 90 3d 98 44 c3 3d d5 40 92 3d
       -0.060065854 0.07056496 0.095345676 0.07141272
0003c0 b0 6e 20 be bc a5 83 bf 3a 84 cd 3f af 08 12 bf
       -0.15667224 -1.0284953 1.6055977 -0.570445
0003d0 cb 42 b9 bf 03 5d 2f 3f 23 7b c4 3e d4 62 6a bf
       -1.4473509 0.685013 0.38375196 -0.9155705
0003e0 b6 4a 66 3f b4 e5 c5 3f db 6b ee bd d1 c8 48 3f
       0.8995775 1.5460725 -0.116416655 0.7843142
0003f0 aa de bc 3e ce 79 0c bf c9 0a 0f bf 0a e0 b8 bf
       0.3688863 -0.5487336 -0.5587583 -1.4443371

decoder.conv.0.weight f4 [64, 16, 3, 3]
000000 33 76 be 3d 32 e3 cb 3c 90 eb 4d be 93 92 9a 3d
       0.092998885 0.024888609 -0.20109391 0.07547488
000010 ad d9 7a be ad 73 02 3d 3f 5e 81 3d d6 96 f1 bb
       -0.24497099 0.0318486 0.06316804 -0.0073727174
000020 a3 f5 f5 3b 50 9f df 3b 32 7a 2d be da 88 d3 3c
       0.007506089 0.0068244115 -0.16941145 0.025822092
000030 43 93 d7 bd df 48 21 3a 87 de 40 be 10 3d 64 3c
       -0.10526135 0.0006152521 -0.18834887 0.013930574
000040 d5 f9 04 be 82 fb b7 bd 8d f6 80 bc f5 9d 49 bd
       -0.12985928 -0.08983518 -0.015742565 -0.049222905
000050 50 d4 57 3e a2 c9 03 3d 60 97 85 3e 7d 6e 0b be
       0.21077085 0.032174714 0.26092052 -0.13616367
000060 39 63 a1 bd a5 8b a6 3d 2e fe 79 3d bc fe 11 3d
       -0.07880253 0.08132104 0.06103342 0.035643324
000070 01 ab b7 3d d1 77 c7 3d f1 00 bd 3b 06 f9 b3 3d
       0.08968163 0.0973965 0.0057679345 0.08787732
000080 76 22 12 3e 08 e2 88 3d 6d 7a 29 3d d2 6b d1 3d
       0.14270958 0.06683737 0.04137652 0.10225643
000090 b2 13 fe b9 37 09 dd bd d9 e5 05 be cc 0d 20 3e
       -0.0004846133 -0.10792773 -0.13075961 0.15630263
0000a0 27 ec eb bd 6d 47 f4 3c bd 52 92 3d 8d e7 07 bd
       -0.11519652 0.029819215 0.07144687 -0.03317981
0000b0 f9 89 5f bd 82 f4 83 bc bf 3a 09 be 53 89 b7 bc
       -0.05457494 -0.016107801 -0.13401316 -0.022404348
0000c0 29 00 24 bd 3d 10 57 be 85 cf ab bd 5d db 65 bd
       -0.040039215 -0.21002288 -0.083891906 -0.056117404
0000d0 8b e8 80 3d 7c a7 18 3d 6d a9 4b bc e5 63 5f 3d
       0.06294354 0.0372691 -0.012430531 0.054538626
0000e0 69 dc 31 be 9e 12 28 3d 7f c1 92 be c7 27 79 be
       -0.17369236 0.04103338 -0.2866325 -0.2433158
0000f0 21 e6 12 3d 84 57 b2 3b 39 3a 1e bd ed 6e 55 3c
       0.035864 0.0054425616 -0.038629744 0.013026935
000100 5f 7a e4 bd a1 ac e5 3d 90 b2 9f bd c3 80 44 3d
       -0.11156153 0.11214567 -0.0779773 0.04797436
000110 5c c0 97 bd 55 75 9f bd 5e 1e 3f be d4 29 11 be
       -0.074097365 -0.07786051 -0.18663928 -0.14176112
000120 d0 ce 60 bb f3 dc 07 be 0d f1 3a bd 53 16 2a be
       -0.0034302957 -0.13267879 -0.04564004 -0.16610079
000130 9c 1b 10 bd 0a f4 ce bd fe 2e cb bb 12 33 bd 3d
       -0.03518258 -0.101051405 -0.0062006703 0.092382565
000140 83 86 6d bd 60 1e 4a 3d 90 9e 03 bd 6c d5 d7 bb
       -0.05798961 0.049345374 -0.03213364 -0.006586721
000150 36 05 2d be 63 ac f9 3d d0 17 8d bd 3b f9 40 3d
       -0.16896519 0.12191083 -0.068893075 0.047112685
000160 3f fd fc 3b 78 e7 f6 bd 33 07 94 bc 4c 4a 56 3c
       0.007720619 -0.12055868 -0.01806984 0.013079237
000170 16 3e 87 3e d8 24 cb bd a2 c7 b8 3e d3 e1 bd 3d
       0.26414555 -0.09919137 0.36089808 0.09271588
000180 4c 35 44 3c 76 60 c7 3d 6e a5 8f bc 50 84 85 bd
       0.011975598 0.09735195 -0.017534938 -0.06519377
000190 46 c0 65 3d 9e d8 0d be b8 3b 3f 3d f6 24 7d bd
       0.05609157 -0.13852164 0.04668781 -0.061802827
0001a0 ef af 28 3d 50 ed 6b bd 0d c1 06 3d 97 3c aa bc
       0.04118341 -0.057599366 0.03289895 -0.020780845
0001b0 45 24 c8 3d 02 66 57 3e 98 a8 0b bd 10 3e ab 3c
       0.09772543 0.21035007 -0.03409633 0.020903617
0001c0 c6 32 4c be fd 6c fb 3d 93 2d c0 3d e7 09 2b 3e
       -0.19941244 0.12276647 0.093836926 0.16702996
0001d0 09 8b 0e 3e be 4b aa 3d 93 ab b2 bd 99 b3 05 3c
       0.13920225 0.08315228 -0.087241314 0.008160495
0001e0 b8 a2 26 be bc ec 8e 3d 69 32 f7 3d cc 74 b0 bc
       -0.1627301 0.06978747 0.12070162 -0.021540068
0001f0 69 45 79 bd 8c ca 0d bd 96 cf 0a bd 10 98 89 3d
       -0.06085721 -0.034616992 -0.033889376 0.06718457
000200 66 5e 07 bd 18 83 85 3c eb d2 ee 3c 57 a4 9c 3e
       -0.03304901 0.016297862 0.029153308 0.3059413
000210 61 13 5b 3d f7 66 91 bc 97 24 4c 3e 6d 62 6e bc
       0.053485278 -0.017749293 0.19935833 -0.014549834
000220 87 be bd 3c 9e 16 33 bd a0 0a 6d 3d 69 e9 e3 bd
       0.02316214 -0.04372274 0.05787146 -0.11128504
000230 50 b3 2b 3d 0d f2 ca 3d c6 af 38 bd d2 27 1e 3b
       0.041919053 0.09909449 -0.045089506 0.0024132621
000240 46 fe ae bc e0 e7 58 bd b1 2e 57 3d 0d ed 7b bc
       -0.021361481 -0.05295551 0.052534763 -0.0153763415
000250 e8 0d 05 3e d9 fb 21 3e b0 15 3b 3c b6 95 20 3c
       0.12993586 0.15818729 0.011418745 0.009801319
000260 fc 08 68 3c e7 51 2b 3d 57 49 82 bd d9 79 9a bc
       0.014162298 0.041826155 -0.06361645 -0.01885693
000270 31 8c 0e bc d8 1d c1 3d 4d 50 b8 bd ea 68 71 bc
       -0.008700416 0.0942952 -0.08999691 -0.014734486
000280 51 1f 59 3d 25 29 b3 bd 59 35 80 3c 4d 23 13 bd
       0.05300838 -0.08748082 0.015650438 -0.035922337
000290 17 b6 92 3d 46 66 18 be 61 36 99 be 1f b5 37 be
       0.07163637 -0.14882764 -0.299243 -0.17940186
0002a0 b6 5c 50 3d f2 70 bb 3d 66 05 40 3c f2 27 8f bc
       0.050869666 0.09152402 0.011720037 -0.017475102
0002b0 5c f6 17 3e bd f0 df 3b b6 0f 27 bd 5f 50 fc 3d
       0.14840072 0.006834118 -0.040786467 0.12320017
0002c0 ad fa 59 be d3 2d 22 3d 81 70 9a bb b8 63 07 bd
       -0.21287031 0.039594483 -0.0047131185 -0.033054084
0002d0 52 56 02 3d 75 67 89 bd 4a 9d a3 3d 98 e3 d3 3d
       0.031820603 -0.06709186 0.07988985 0.103461444
0002e0 36 80 50 3e dc fa 09 3d aa dc 64 3d bb d4 09 bd
       0.20361409 0.033686504 0.055874504 -0.03365014
0002f0 95 c4 78 3d b8 f2 aa bd fe f4 30 3d 67 e0 2c 3d
       0.06073435 -0.08347076 0.043202393 0.042206194
000300 ad c9 d1 bb 87 c5 68 be 12 fe 19 3e 00 38 d6 bc
       -0.0064022155 -0.227316 0.15038326 -0.02614975
000310 dc ab 7b 3d 19 ba 7f 3d b4 09 c4 bd e7 6f 08 be
       0.061443195 0.062433336 -0.09572163 -0.13323937
000320 69 28 8c bd fc dd 1a 3e f0 1b de 3d 07 9b 6e 3e
       -0.06843645 0.15123743 0.108451724 0.23301326
000330 65 05 f5 3c 4c ea 26 3d c8 97 12 bd a6 20 eb bb
       0.029909799 0.040750787 -0.03578928 -0.007175523
000340 58 b0 86 3c 6f 0f d8 bc 70 41 c6 bd c2 3b 8d bd
       0.01644151 -0.026374547 -0.0968045 -0.068961635
000350 4d 0e 3a be cb fa 14 bd df 71 1c 3b 40 b8 f3 bd
       -0.18169518 -0.036371987 0.0023871583 -0.11900377
000360 64 42 e7 3c 95 eb 66 bd 8a a0 d9 3b 61 5f b5 3d
       0.0282299 -0.056377012 0.006641452 0.08856083
000370 cb d5 69 be 60 cc 90 3d d4 c3 11 be eb a9 e7 bd
       -0.22835462 0.070702314 -0.14234859 -0.11311706
000380 78 c9 88 3b 62 4c ef 3d e9 3e 90 3b 1e 61 5a bc
       0.0041744076 0.11684491 0.0044020307 -0.013328819
000390 9b de c1 bc 77 02 93 be d8 c3 03 bd 90 06 c8 bc
       -0.023665717 -0.28712818 -0.032169193 -0.024417192
0003a0 8b f4 34 bd d7 51 d7 bd c5 72 cf bc b8 b7 4b bd
       -0.044178527 -0.105136566 -0.025323281 -0.049735755
0003b0 8f 0d af bd e2 cf 1f bd 42 8d 5e be 23 de bc be
       -0.08547508 -0.039016612 -0.21733573 -0.36888227
0003c0 7e 6b 5b 3b 17 fd 1b 3c 99 ee 2e bd 08 50 63 bd
       0.0033480818 0.009520791 -0.042708013 -0.055496246
0003d0 1f 0f 83 3d 71 82 88 bd c5 f6 81 bc d4 55 24 bd
       0.063993685 -0.06665505 -0.01586474 -0.040120915
0003e0 8f 7c ab 3d e3 be a7 bd 30 ee 29 bd 9e 14 11 3e
       0.08373367 -0.081907056 -0.04148692 0.14168021
0003f0 56 8d 59 3d ca 41 16 be 99 63 cc bd 2e 21 c5 3c
       0.053113304 -0.14673534 -0.09979934 0.024063673

decoder.conv.0.bias f4 [64]
000000 b2 aa 12 3e 81 f5 50 3d b8 53 0d bd ef 86 f5 3c
       0.14322928 0.05101538 -0.03450367 0.029971568
000010 23 56 22 3e 80 78 74 3d ef 4f ee 3d 76 04 83 3e
       0.15853171 0.05968523 0.1163634 0.2558934
000020 d0 06 81 3d eb 80 f1 3c 58 88 81 3d af cf 5c 3c
       0.063001275 0.029480418 0.06324834 0.01347725
000030 dc 6d 9f 3d cb ee ae 3d 6e 55 39 3d 11 66 6a 3d
       0.07784626 0.0854164 0.045247488 0.057226244
000040 c3 77 79 3d 3a 40 ba bc 51 05 15 3e b5 c0 9a 3d
       0.06090523 -0.022735704 0.1455281 0.07556287
000050 ba f8 1f 3d 01 4c b7 3d 8c c3 b0 3d 90 07 c8 3d
       0.039055564 0.089500435 0.086310476 0.097670674
000060 45 b9 8a 3e c7 cb 53 bd f2 fa 24 3d f8 27 a8 3c
       0.27094474 -0.05170801 0.040278383 0.020526871
000070 73 aa a0 bc 3a 8a 71 3d 78 65 3d 3d 89 7c d1 3d
       -0.019612527 0.058969714 0.046239346 0.10228831
000080 c3 0e 82 3d 11 b7 4e 3d 78 b5 ab bd 23 24 d0 3d
       0.06350472 0.050467554 -0.08384222 0.101631425
000090 be 43 a3 3d d9 82 6a 3d 29 35 24 3e ec ca 52 3c
       0.07971905 0.057253692 0.16035904 0.012865763
0000a0 70 e7 d1 ba 30 55 31 3d ec 6c b8 3b 71 e8 af 3c
       -0.0016014408 0.04329413 0.005628219 0.021473141
0000b0 cf 46 32 3d 26 e1 89 3d 57 01 1a 3d 83 11 3c bd
       0.04352456 0.06732397 0.037598934 -0.045915138
0000c0 fd 3f be 3d 0c 6b ce 3c f9 f4 62 3d 82 78 2b 3e
       0.092895485 0.025197528 0.055409405 0.16745189
0000d0 fd d9 fa 3d 5e 0c 46 3d 50 3e f0 3c 4d 22 be 3d
       0.12248609 0.048351638 0.029326588 0.09283886
0000e0 f7 84 c1 3d 9b d5 55 bd a0 56 a2 3d bc 7a 2b 3d
       0.09449189 -0.052205663 0.07926679 0.041865095
0000f0 1f bd e0 bc d0 ae d0 3d 12 eb 3d 3d 58 34 0b 3d
       -0.02743393 0.10189593 0.04636676 0.033985466

decoder.conv.2.weight f4 [64, 32, 4, 4]
000000 1a 72 c1 bc f4 f5 01 3d 82 ce a3 bd d0 67 40 3d
       -0.023613978 0.0317287 -0.079983726 0.046974003
000010 a6 ec 86 3c ad b0 2b 3d 7f 19 b3 3b eb c2 33 3d
       0.016470265 0.041916538 0.005465686 0.04388706
000020 4b 4e 39 3d 0c ba c9 3d 73 f7 4a bd e5 de 4e 3d
       0.04524068 0.09849939 -0.049552392 0.050505538
000030 36 53 c2 bc 0d 1c 19 be 3a 68 d8 3c 8d 37 fb 3d
       -0.023721319 -0.14952107 0.026416887 0.12266455
000040 59 13 2e be 19 cc bf 3b 16 8c 15 be 5e ac 97 3d
       -0.16999568 0.0058531878 -0.1460422 0.07405923
000050 08 71 56 be 7b 68 52 bd dd ef 95 bd ce eb 8b 3d
       -0.20941556 -0.05136917 -0.07321141 0.068320855
000060 18 f0 13 3e 73 ec f9 3d 6f 54 89 3e da 18 a8 3c
       0.14447057 0.12203302 0.2682223 0.020519663
000070 25 50 07 3e 1f c8 60 bd 58 ce 0f bd 36 c2 85 bc
       0.13214166 -0.05487835 -0.035108894 -0.016327959
000080 2d 5f ab bd 74 f7 d3 bd d9 8c 95 bd e6 52 2f be
       -0.08367763 -0.10349932 -0.07302255 -0.17121467
000090 9b 83 39 bb dd f7 6d bd 15 62 ee bd bd 5d 38 be
       -0.0028307203 -0.05809771 -0.116398014 -0.18004508
0000a0 a7 1e d2 3d bb b7 5f 3e 8e 85 1c 3d 81 c8 bb bd
       0.10259753 0.21847431 0.038213305 -0.091691025
0000b0 c1 8c 49 3d bf 17 a3 3c 23 d9 f5 bd c6 29 ad bd
       0.0492065 0.019908784 -0.12004306 -0.08455233
0000c0 65 74 b3 ba 76 99 b9 bd ea 85 52 bd 2c 1a b7 3c
       -0.0013691304 -0.090624735 -0.05139724 0.022351347
0000d0 a5 f7 ff 3c e8 2d ec 3b ea 14 67 bd 78 2f bb bd
       0.031246016 0.007207621 -0.05641643 -0.09139913
0000e0 5e fa 5d bd 57 90 e6 bc 98 d0 56 3d 1e 7d d4 bb
       -0.054193847 -0.028144998 0.052445024 -0.0064846417
0000f0 04 9e 9b bc 71 50 8d bc dd f0 7b bd 1a 2b d2 bb
       -0.018996246 -0.017250272 -0.061509002 -0.0064138295
000100 24 6f bf bd a7 e7 2c bd 55 b9 4b bd b2 08 29 bc
       -0.0934737 -0.04221311 -0.049737293 -0.0103170145
000110 72 f3 a8 bd 30 dd dd ba 9c cd c4 bd df 3d 80 bc
       -0.082495585 -0.0016926881 -0.096095294 -0.015654502
000120 4e 57 40 3d 4d d6 82 3c 94 a7 9c bc d5 7e ab bd
       0.04695826 0.015971327 -0.019122876 -0.08373801
000130 6c b6 71 3c 57 7c 0b bd 36 c5 d8 bc 19 2f 1e bd
       0.014752965 -0.034054127 -0.026461225 -0.038619135
000140 41 cf e1 bc 5f 28 f1 bc 5e 46 ea 3d d5 dc a5 bd
       -0.027564647 -0.029438196 0.11439203 -0.08098761
000150 71 6b 10 3d f1 61 fd bc a3 64 eb bc 0f 0d 3a bd
       0.035258714 -0.030930491 -0.02873451 -0.04542261
000160 e1 1c 26 be 81 88 90 3c 8b 72 20 bd df 25 dd bd
       -0.16221954 0.017643215 -0.039171737 -0.10798239
000170 b2 16 47 3d 1c f8 bf bd f6 70 2b bd 18 dd 5a bd
       0.04860563 -0.09373495 -0.041855775 -0.053433508
000180 52 1b 22 be d0 81 f7 bd 65 3c b1 3d c0 81 7f bd
       -0.15830734 -0.12085307 0.086540975 -0.0623796
000190 23 13 b4 bd 17 c5 6f bc 44 31 e0 bb fd fb 42 bc
       -0.087927125 -0.014634392 -0.0068418104 -0.011900899
0001a0 a5 f5 0e 3e 12 53 66 bd 45 22 f9 bc cb ec b2 bc
       0.13960893 -0.056231566 -0.030411849 -0.021841427
0001b0 aa cf 90 3d 98 d6 d6 bd c6 e8 7e bd db 81 20 bd
       0.07070859 -0.10490149 -0.06223371 -0.03918634
0001c0 be f1 12 be 4d 20 61 bd 8f 47 8a bc fa 24 93 bd
       -0.1435003 -0.054962445 -0.016879825 -0.07184787
0001d0 f6 13 5e be 8f 4f aa bd f2 12 df bd 59 5d 4e bd
       -0.21687302 -0.08315956 -0.108922854 -0.050381992
0001e0 2b 52 83 3d 11 75 e5 3d 17 87 a2 bc bd 35 0b be
       0.06412157 0.11203969 -0.019839806 -0.13594718
0001f0 03 38 b4 3c 7d a1 76 3d a9 75 fd 3c 05 59 24 be
       0.021999365 0.0602126 0.030939894 -0.16049583
000200 e4 5b 84 be 3c 92 e8 bd 59 dd 7d 3d c4 cd d3 bd
       -0.25851357 -0.11356017 0.06197867 -0.10341981
000210 a6 4b 0b 3e 65 80 06 be 67 80 07 be ef a6 e2 bd
       0.13603076 -0.13134916 -0.13232575 -0.11066996
000220 e6 77 93 3e 1a 28 69 3d 33 94 fc 3c a3 46 f8 bc
       0.28802413 0.05692301 0.030832386 -0.03030712
000230 e3 c0 12 be 7c e3 b9 bc c4 18 ef bd 4f 99 df 3c
       -0.14331393 -0.02269148 -0.116746455 0.027294783
000240 82 c1 e6 bc 92 49 d1 bd 47 b2 d7 3d 20 d3 54 bd
       -0.028168444 -0.102191105 0.105320506 -0.051959157
000250 ab 86 9a 3d af 96 13 3c 1b 07 b1 bd 58 1f a5 3d
       0.07545217 0.009008094 -0.086439334 0.08062619
000260 55 25 d6 3c 47 f7 be bd 80 17 40 3d 40 1a 74 3d
       0.026140848 -0.09324508 0.04689741 0.059595346
000270 4a fe 49 be bb a6 e4 3c 50 3e 65 3d 78 41 96 3c
       -0.1972591 0.027911535 0.05596763 0.018341765
000280 19 57 7c 3c 09 32 0b bd e6 c9 56 be 6d 20 7a be
       0.015401625 -0.033983264 -0.20975456 -0.24426432
000290 2a ec 00 be 68 47 dc bd f0 ec 97 bd 0c 0f 0a be
       -0.1259009 -0.10755807 -0.07418239 -0.13482302
0002a0 e1 9b 6b 3d 3f 03 b6 3d 46 fa c9 3d 61 51 10 bd
       0.057521705 0.08887338 0.09862189 -0.03523386
0002b0 28 4a 19 3e 9a 2a 2b bc e4 7f 48 3d 28 b2 88 bd
       0.14969695 -0.010447169 0.04895009 -0.066746056
0002c0 38 a0 04 be ce 56 51 3b 89 bf 10 3d f2 e6 8a 3d
       -0.12951744 0.0031942609 0.035338912 0.067823306
0002d0 86 8c 99 be 8b 3f bc bc 67 c9 57 3e 5a d7 3f bd
       -0.29990023 -0.022979518 0.21072923 -0.046836235
0002e0 66 12 9b 3c 10 97 4f bd 00 17 ed 3d 3e 72 ca 3d
       0.018929671 -0.050681174 0.115766525 0.09885071
0002f0 0b f5 95 3c cd 3d 87 3d e1 9e 92 3d 4f ef 28 be
       0.018305322 0.066035844 0.0715921 -0.16497539
000300 8f c0 fb 3c 72 85 78 3d d2 92 95 bc 8e 72 0a 3d
       0.030731468 0.06067414 -0.018258486 0.033800654
000310 1f 2f b9 3c 5a f3 ee 3d b0 a9 49 3c 2c 3e 27 bd
       0.022605477 0.116675094 0.012308523 -0.040830776
000320 77 1f b3 bc af f9 c7 3c be 30 86 bd 74 05 ca bb
       -0.02186559 0.02441105 -0.065522656 -0.006165201
000330 a8 8a d7 3d 9f 2f 6e 3b c3 a2 f1 bb b0 c1 d3 3d
       0.105244935 0.0036344302 -0.007374139 0.10339677
000340 7c ac 0b 3d 56 b9 c5 bd 78 7d cd 3b 09 64 69 bd
       0.03410004 -0.09654491 0.0062710606 -0.056980167
000350 6d 65 53 be b8 ab 0f bc 26 d5 94 bd ed 50 2b be
       -0.2064416 -0.008768968 -0.07267217 -0.1673009
000360 dd bf bf 3d d0 cc b6 3d cd 0d d6 bd 07 72 02 bd
       0.09362767 0.08925784 -0.10451851 -0.031847026
000370 f3 eb fc 3d f7 80 2c 3d 9f 60 0c 3c 81 6e 28 3c
       0.12349691 0.042115178 0.008567958 0.010280252
000380 f3 ce ad bd d1 09 9e bd ff 40 00 be 88 5e a8 3c
       -0.08486738 -0.07716716 -0.12524794 0.020552889
000390 22 77 93 bd 32 bb 3b be 0b ef 6b be 3d b7 dd bd
       -0.07200457 -0.18333128 -0.23040406 -0.108259656
0003a0 bd 44 8c bd 7b ce fb 3d 8f 36 ba bd 63 96 e7 bc
       -0.06849048 0.122952424 -0.090924375 -0.028269952
0003b0 44 dd a3 bc dd dc 66 3c 3a d6 95 3d 0a 42 cd 3c
       -0.020002969 0.014090744 0.07316251 0.025055904
0003c0 e5 87 28 be 50 53 95 bd 69 ed 85 bd 34 04 11 3d
       -0.1645809 -0.07291281 -0.06539423 0.0354044
0003d0 51 8b 71 bb 3c 8b 21 bd 5e 5a 02 be c9 62 7d bd
       -0.003685672 -0.039439425 -0.12729785 -0.061861787
0003e0 ce 91 3a 3e 50 b5 17 ba 85 c8 39 bd 99 1a 05 bd
       0.18219683 -0.00057872105 -0.045357246 -0.03249607
0003f0 a1 8a ff 3d b3 e4 8d bd 7b 44 16 bd 46 9a 5f 3d
       0.12477613 -0.069283865 -0.0366864 0.054590486

decoder.conv.2.bias f4 [32]
000000 49 cc b8 3d a2 e3 55 3d f6 94 6a 3d 9d 3f 80 bd
       0.09023339 0.05221904 0.057270966 -0.06262133
000010 00 12 dc bc eb 85 17 bc 68 34 d2 3d e3 72 1c 3d
       -0.026864052 -0.009248237 0.10263902 0.038195502
000020 82 51 07 3d 95 d3 1b 3e 8b 76 74 3d 14 1c 71 3d
       0.033036716 0.15217431 0.059683364 0.058864668
000030 e4 31 6c 3c 0e 19 b1 3d af bf 37 3d 9e 77 b0 3d
       0.014416192 0.08647357 0.044860538 0.08616565
000040 8c a1 69 3d 6d d4 50 3e 19 24 7e 3c b7 47 d8 3d
       0.05703883 0.20393534 0.015511536 0.105605535
000050 28 a2 13 3d 67 51 c3 bd 5c 78 ab 3c db 98 6c 3d
       0.036043316 -0.09537011 0.020931415 0.05776296
000060 c8 20 bc 3d 65 19 28 bd 97 67 14 3e 04 eb 03 3e
       0.0918594 -0.041039843 0.14492641 0.1288262
000070 b4 63 b9 3c c1 c4 a3 3d cd 17 95 3a 4d ef 35 bc
       0.02263055 0.07996512 0.0011374891 -0.011104417
